results/PacmanOnly_imitation1/PacmanMlAgent/PacmanMlAgent-613718.onnx (onnx, 377078 bytes, 6 tensors)

action_model._discrete_distribution.branches.0.bias f4 [5]
0.19856665 -0.042848118 -0.08318658 -0.11674128 -0.05600961
00000000: 0e55 4b3e 8281 2fbd ba5d aabd 0d16 efbd
00000010: 556a 65bd

action_model._discrete_distribution.branches.0.weight f4 [5, 128]
0.009184153 0.025662413 -0.060687717 -0.15721126 0.050978083 0.057425722 -0.03065911 -0.0068476386
-0.3012821 -0.017063847 0.004003392 0.0831064 -0.04044316 -0.0031650676 0.0065099117 0.04212252
0.04467118 -0.0045635994 -0.015971359 -0.013263289 -0.27862602 -0.0101695545 -0.22962122 0.0037104688
0.050201487 -0.018353136 -0.01846765 -0.09546942 -0.049575105 -0.006226249 0.030646639 0.0073807016
-0.0028881428 0.00077989645 -0.0009637291 0.02849993 -0.027288135 -0.2344325 0.019267049 -0.015871368
0.013379013 -0.051020116 0.033855453 0.014143512 -0.0036459973 -0.017638251 -0.012744688 -0.0112210605
-0.0026511762 -0.13952637 0.020275353 -0.030297754 0.0054319752 -0.026536163 -0.0011221236 0.0023484153
0.009905586 0.02020448 -0.0125850625 -0.024584578 -0.024018262 -0.009526012 0.010043308 -0.053791903
-0.0045576505 -0.044819027 -0.26342982 -0.018225407 -0.22732593 0.009481064 0.0459138 0.0014851262
-0.17663944 -0.1441104 -0.022796607 -0.2572545 -0.2637392 -0.012799793 0.012155492 0.09943016
-0.11147223 -0.17283326 -0.049008667 0.010641853 -0.0009946935 -0.002280579 0.011221629 -0.024385102
-0.014434611 -0.24967447 -0.010144157 0.045916583 0.013344288 0.015779776 -0.00839682 0.008160632
-0.010575595 0.060317833 -0.017263658 0.015204721 0.009611067 0.0010929797 -0.13967645 -0.2713594
0.015253464 -0.024990112 -0.011410325 -0.012282058 0.040786512 -0.02080838 -0.17703085 -0.06356484
-0.086661465 0.03793164 -0.0075491047 -0.028411528 0.00086077815 -0.016585203 -0.02743586 -0.014354023
-0.15960544 0.011947699 0.007142793 0.013597891 0.008272193 -0.19631037 -0.0943793 -0.016144259
0.0035648155 0.012765669 0.06304289 0.17710647 0.00024880207 -0.019481879 0.011936844 -0.0027078672
0.0638738 -0.013844106 0.014999917 0.2829074 0.20573261 0.0031559765 -0.0043925056 -0.022052534
0.030381855 0.0022301078 0.00035348444 0.0009545574 0.20117323 -0.00010706736 -0.11861974 -0.0073055816
-0.0070573674 0.0015689989 0.004594757 -0.053937208 0.06801241 -0.01828837 0.010281341 0.015795844
0.0044991225 8.1470105e-05 0.019942367 -0.017447963 -0.0034144733 0.03229942 0.0023962099 -0.002484931
0.0078329155 -0.0230894 -0.012638799 -0.0042633754 -0.022054167 -0.0081975395 -0.013364479 0.0031211034
-0.0261361 0.07154156 0.006751556 0.0058866427 -0.00039096168 0.0007672686 0.012701472 0.0010985058
-3.0747924e-05 0.00900947 -0.006027537 -0.0035626472 0.02472423 -0.018511664 0.07007012 -0.08670335
-0.00053650123 0.012043181 -0.008378427 -0.008178763 0.17284963 0.0010037756 -0.015331452 0.010286819
0.16713071 0.02334528 -0.004528878 -0.055055205 -0.15575813 -0.0058983266 -0.010165562 0.13258752
0.021081068 0.10779606 0.029475758 -0.03650043 -0.0135103855 -0.00939252 0.013155525 0.013476991
0.00048714143 0.073948525 0.0073143467 0.0007688037 0.005370914 0.007963257 0.007500325 0.007599388
-0.008578313 -0.022175932 0.0027364867 -0.010361722 0.0088427225 -0.0058861542 0.057345502 -0.0026719968
-0.011216562 0.0010417204 0.029738989 0.0013672456 0.027653646 -0.04053903 0.14637567 0.010904147
0.1846868 0.005522479 -0.0014306934 0.015920825 -0.00031754968 -0.012188283 0.005248125 0.0020898217
0.08738226 -0.00922451 -0.018512689 0.0032649783 0.0062596193 0.33097562 0.2857187 -0.008572498
00000000: 2179 163c fb39 d23c af93 78bd fdfb 20be
00000010: 65ce 503d 3c37 6b3d d028 fbbc 2862 e0bb
00000020: a641 9abe 7bc9 8bbc e32e 833b b033 aa3d
00000030: baa7 25bd 066d 4fbb 1951 d53b aa88 2c3d
00000040: 21f9 363d 3f8a 95bb 5ed6 82bc 444e 59bc
00000050: 12a8 8ebe 349e 26bc d321 6bbe 562b 733b
00000060: 13a0 4d3d 5159 96bc 7849 97bc 7985 c3bd
00000070: 440f 4bbd 9005 ccbb a90e fb3c d0d9 f13b
00000080: ff46 3dbb f771 4c3a c4a2 7cba af78 e93c
00000090: 5e8b dfbc 130f 70be eed5 9d3c ac04 82bc
000000a0: a633 5b3c 78fa 50bd 04ac 0a3d 30ba 673c
000000b0: aff1 6ebb 187e 90bc 19cf 50bc 8ad8 37bc
000000c0: 5bbf 2dbb 00e0 0ebe 7f18 a63c ff32 f8bc
000000d0: b6fe b13b 5e62 d9bc 3814 93ba dfe7 193b
000000e0: 0a4b 223c de83 a53c 9431 4ebc 9965 c9bc
000000f0: f2c1 c4bc fe12 1cbc b08c 243c e654 5cbd
00000100: 5858 95bb 2894 37bd 46e0 86be 734d 95bc
00000110: 21c8 68be 7756 1b3c 1c10 3c3d 91a8 c23a
00000120: f8e0 34be ad91 13be f3bf babc ddb6 83be
00000130: d308 87be 39b6 51bc d427 473c 0aa2 cb3d
00000140: 8d4b e4bd 34fb 30be 50bd 48bd 2b5b 2e3c
00000150: 6060 82ba c475 15bb ecda 373c 44c3 c7bc
00000160: 267f 6cbc aaaa 7fbe ae33 26bc 0713 3c3d
00000170: 00a2 5a3c 9744 813c d192 09bc 2cb4 053c
00000180: 4345 2dbc d50f 773d 846c 8dbc 391d 793c
00000190: bd77 1d3c 5042 8f3a 5807 0fbe 9fef 8abe
000001a0: aae9 793c 10b8 ccbc 5ff2 3abc af3a 49bc
000001b0: c20f 273d 5676 aabc 9347 35be 482e 82bd
000001c0: 917b b1bd 355e 1b3d 7b5e f7bb 4bbf e8bc
000001d0: d8a5 613a b1dd 87bc 2bc1 e0bc 232d 6bbc
000001e0: 9c6f 23be 48c0 433c 170e ea3b b0c9 5e3c
000001f0: 1888 073c 9605 49be ef49 c1bd f740 84bc
00000200: ae9f 693b 1927 513c a11c 813d 665b 353e
00000210: a671 8239 7698 9fbc c192 433c 7976 31bb
00000220: 44d0 823d 64d2 62bc 36c2 753c 3dd9 903e
00000230: 92ab 523e 80d4 4e3b 02ef 8fbb 84a7 b4bc
00000240: 5ee3 f83c 0027 123b e153 b939 433b 7a3a
00000250: 5b00 4e3e 5a89 e0b8 e8ee f2bd a963 efbb
00000260: 7d41 e7bb dea6 cd3a 9e8f 963b 43ed 5cbd
00000270: 174a 8b3d 7ed1 95bc 1273 283c 4966 813c
00000280: 606d 933b eeda aa38 2d5e a33c 08ef 8ebc
00000290: 5bc5 5fbb 664c 043d bb09 1d3b 39da 22bb
000002a0: a155 003c fb25 bdbc f712 4fbc c9b3 8bbb
000002b0: f1aa b4bc f94e 06bc b0f6 5abc 6d8b 4c3b
000002c0: 601b d6bc 6284 923d 283c dd3b bde4 c03b
000002d0: fdf9 ccb9 8622 493a d619 503c bdfb 8f3a
000002e0: 55f7 00b8 759c 133c a582 c5bb 4d7b 69bb
000002f0: 788a ca3c c6a5 97bc ec80 8f3d 8791 b1bd
00000300: fda3 0cba c350 453c ab45 09bc 3800 06bc
00000310: 7eff 303e 1f91 833a c530 7bbc 0c8a 283c
00000320: 5024 2b3e 9a3e bf3c fb66 94bb 9181 61bd
00000330: 0f7f 1fbe c046 c1bb 758d 26bc 06c5 073e
00000340: 34b2 ac3c 2ec4 dc3d 2577 f13c 7a81 15bd
00000350: aa5a 5dbc 16e3 19bc 458a 573c 99ce 5c3c
00000360: 0467 ff39 5372 973d 30ad ef3b 8b89 493a
00000370: 7efe af3b 5278 023c 49c5 f53b 4904 f93b
00000380: 0d8c 0cbc 4daa b5bc a156 333b 36c4 29bc
00000390: 11e1 103c a4e0 c0bb 1ee3 6a3d ab1c 2fbb
000003a0: acc5 37bc 568a 883a 2e9f f33c 2635 b33a
000003b0: e689 e23c 410c 26bd 81e3 153e 4fa7 323c
000003c0: 891e 3d3e e9f5 b43b 1b86 bbba 646c 823c
000003d0: cc7c a6b9 5db1 47bc 77f8 ab3b 64f5 083b
000003e0: 78f5 b23d 6622 17bc eca7 97bc 3ff9 553b
000003f0: 7e1d cd3b a375 a93e b949 923e aa73 0cbc

network_body.linear_encoder.seq_layers.0.bias f4 [128]
-0.04578916 -0.046726532 -0.1802167 0.32807356 -0.1822503 -0.109898254 0.13164411 0.22178175
0.3268792 -0.13210742 0.32739645 -0.28923157 -0.29689696 -0.28506932 0.3013398 0.001950646
-0.2948287 -0.15261666 0.34242186 -0.16577776 -0.023800328 -0.055062164 -0.14388786 0.3300268
-0.29357025 -0.19328962 -0.005082259 -0.28902704 0.31847087 0.32324454 -0.20670739 -0.29656643
-0.01185686 0.34140456 0.31545633 -0.014909269 -0.1222715 -0.2957252 -0.028068941 -0.060460016
0.33239043 -0.30876538 -0.26807427 0.30868468 -0.28823817 0.33756322 0.315506 0.318312
0.34787086 -0.054485824 -0.046653252 -0.2845947 -0.1040782 -0.2811195 0.3380159 -0.28370747
-0.28889146 0.33697444 0.30807558 0.32212362 -0.285822 0.3186432 -0.28154495 -0.010863225
0.30158997 0.015450012 -0.033548832 -0.18684104 0.33288932 -0.2803779 -0.27412388 0.3207846
-0.2760921 -0.28280032 -0.28124186 0.32240942 -0.29785448 -0.107991494 0.25564912 -0.054762617
-0.28849092 -0.2015386 -0.29223505 -0.27348918 0.34399033 -0.19760256 -0.2680754 -0.02748537
0.31727025 -0.28975368 -0.27174935 -0.042071164 -0.23209761 0.32569462 -9.18904e-05 -0.27671167
0.33248886 0.33123016 -0.14097477 -0.036992375 -0.3129386 -0.0697848 0.06456139 -0.22584203
-0.2037054 -0.29049277 0.30974305 0.08119896 0.3312814 -0.014415635 -0.29093117 0.34187055
-0.29961976 -0.29667795 -0.28258818 -0.04655633 0.32089233 -0.1387379 0.3318789 0.32013988
-0.011635328 0.31411818 -0.043156013 -0.13710889 -0.0766041 -0.119863376 -0.27758822 0.318973
00000000: 6a8d 3bbd 5264 3fbd ba8a 38be 42f9 a73e
00000010: d39f 3abe 5612 e1bd b7cd 063e c11a 633e
00000020: b65c a73e 2b47 07be 82a0 a73e 2916 94be
00000030: e102 98be 9bf4 91be 3649 9a3e d2ac ff3a
00000040: caf3 96be 8b47 1cbe eb51 af3e a5c1 29be
00000050: e8f8 c2bc dd88 61bd 5757 13be 46f9 a83e
00000060: d74e 96be b7ed 45be 1489 a6bb 5afb 93be
00000070: 9d0e a33e 4f80 a53e 1aab 53be 8ed7 97be
00000080: 4643 42bc 94cc ae3e 7e83 a13e 0246 74bc
00000090: 7b69 fabd 4b69 97be d6f0 e5bc eca4 77bd
000000a0: 142f aa3e 7f16 9ebe 0841 89be eb0b 9e3e
000000b0: f493 93be 16d5 ac3e 018a a13e caf9 a23e
000000c0: 211c b23e 872c 5fbd 7b17 3fbd 66b6 91be
000000d0: f426 d5bd e5ee 8fbe 6c10 ad3e 1b42 91be
000000e0: 95e9 93be ea87 ac3e 15bc 9d3e 63ed a43e
000000f0: 4357 92be 3425 a33e a926 90be abfb 31bc
00000100: 006a 9a3e 0c22 7d3c 806a 09bd 4253 3fbe
00000110: 7870 aa3e b18d 8fbe f759 8cbe e13d a43e
00000120: f25b 8dbe 34cb 90be effe 8fbe d912 a53e
00000130: 6280 98be a52a ddbd 71e4 823e c44e 60bd
00000140: 15b5 93be 2260 4ebe d59f 95be c606 8cbe
00000150: 801f b03e 5358 4abe 2e41 89be 0029 e1bc
00000160: 3f71 a23e 985a 94be bb22 8bbe d052 2cbd
00000170: ffaa 6dbe 72c1 a63e 48b5 c0b8 27ad 8dbe
00000180: fb3b aa3e 0097 a93e b15b 10be 5185 17bd
00000190: 7d39 a0be 55eb 8ebd c338 843d 2243 67be
000001a0: 2698 50be 78bb 94be a496 9e3e a44b a63d
000001b0: b79d a93e 8e2f 6cbc eef4 94be a809 af3e
000001c0: c367 99be 2ce6 97be 66af 90be dab1 3ebd
000001d0: 004c a43e 4f11 0ebe 08ec a93e 60e9 a33e
000001e0: 1aa2 3ebc 19d4 a03e 5cc4 30bd 4666 0cbe
000001f0: 9ce2 9cbd ee7a f5bd 0b20 8ebe 6e50 a33e

network_body.linear_encoder.seq_layers.0.weight f4 [128, 597]
-0.018213859 -0.021065537 0.09299129 0.012813733 -0.006681677 -0.043543436 0.017692018 -0.05743377
-0.064094044 0.03137489 -0.070512585 -0.03851866 -0.03376503 0.038446285 -0.014460257 0.020418946
0.05978891 0.011135044 0.02806162 -0.116481826 0.029862158 0.02640839 -0.058133576 0.07082894
-0.021029666 0.010869068 0.023626694 -0.11202945 0.004313919 -0.018993268 -0.052083 0.001949015
0.042847715 -0.043663297 0.030911606 -0.032587152 0.005143437 -0.0097091645 -0.019866094 0.030083098
0.030937066 -0.005805716 -0.004769847 0.0022242772 0.06762033 0.010590057 0.0047644954 0.003651341
0.04377865 0.012160529 -0.034696795 -0.03310353 0.031266347 -0.045036536 0.047867134 0.07568871
-0.09042131 0.03498484 -0.06373727 0.05404155 -0.04926952 0.0024273111 -0.05941344 -0.034938708
-0.043600127 -0.1457156 0.014981448 0.008369405 -0.062348567 0.07352408 -0.015757756 0.068934426
-0.027918229 0.04946369 0.08357563 0.018638555 0.046344735 -0.07804648 0.04159103 0.028433543
0.04176569 0.024164844 -0.032048583 -0.020348512 -0.026580097 -0.008235348 0.026348617 -0.021755405
-0.0063269343 -0.015512179 0.04991118 -0.03533053 -0.045285005 -0.0050947224 -0.00019111682 0.0035764263
-0.033791173 0.050215222 0.03216279 -0.0075100567 -0.022965355 -0.0270847 -0.044766936 0.0072568487
-0.043571692 -0.022663523 0.010348125 -0.00083398557 -0.11292559 -0.011650768 0.020722497 -0.02310299
0.007962233 -0.0063075526 0.049424104 0.010866113 -0.04394656 -0.033953775 0.0016371208 0.002084592
-0.02425638 0.025145158 0.02468554 0.0075778994 0.0137629965 0.052282576 -0.04218107 -0.0055561652
0.045330554 0.019601537 0.0155870775 0.08279465 0.032407086 0.015557609 -0.005386587 -0.058961987
-0.017288499 0.0037792884 -0.056138836 0.041059773 -0.012242476 0.04595566 0.020198919 -0.0051616356
-0.018158138 0.065868236 0.0007420368 -0.03980562 0.04224305 -0.06386821 0.06191582 -0.02569199
0.020855544 0.03414862 0.022511212 0.016725594 -0.03586754 0.06818475 -0.10683263 0.09256347
-0.014700883 -0.06729289 0.014593255 0.041643772 -0.014893585 0.0678532 0.021395884 0.02382217
0.011843096 0.06688856 0.038589377 -0.057407074 -0.02247157 -0.016777968 -0.059282802 0.024233047
-0.05079238 -0.046046864 -0.0048229396 0.0067926454 -0.032743733 -0.10036972 0.008780939 0.008790226
-0.016426899 -0.028428443 -0.021374382 0.037823897 -0.0027853132 0.0040374785 0.0038221488 -0.0016620654
0.03403409 0.012898177 -0.093164325 0.02770536 -0.07508111 -0.009361851 -0.036124706 -0.009067082
0.005333556 -0.011487105 0.04704082 -0.047026895 -0.13798301 0.014129109 -0.00031574347 -0.04340879
0.055181254 0.0766567 -0.044282485 0.04456229 -0.046500202 0.011266096 -0.051092874 0.024782356
-0.03367029 0.024508819 -0.04160518 -0.030557219 0.0500315 0.092106685 -0.043241687 0.022654898
-0.03155338 0.04044244 0.024282595 0.054617118 0.030387862 -0.00699772 -0.05299466 -0.016102407
-0.016257575 -0.03457944 0.041528493 0.06967999 -0.03003405 -0.051170643 0.0063374634 -0.025073575
0.03702505 -0.06991372 -0.017539827 0.006017825 -0.06320222 0.0077460464 0.0048739943 -0.033545945
-0.058763325 0.02451614 -0.027194073 -0.021973908 0.09360011 -0.017186338 0.026170347 -0.0679647
00000000: 3b35 95bc a291 acbc 3872 be3d b1f0 513c
00000010: f8f1 dabb 9a5a 32bd daee 903c ac3f 6bbd
00000020: bd43 83bd f582 003d e768 90bd bec5 1dbd
00000030: 334d 0abd da79 1d3d b7ea 6cbc a245 a73c
00000040: 37e5 743d c26f 363c 7ce1 e53c 068e eebd
00000050: 7ca1 f43c 6856 d83c 791d 6ebd c30e 913d
00000060: 6846 acbc 2d14 323c c58c c13c b26f e5bd
00000070: c75b 8d3b c597 9bbc fc54 55bd 1776 ff3a
00000080: 1681 2f3d 49d8 32bd 563a fd3c 1b7a 05bd
00000090: 478a a83b 3013 1fbc 38be a2bc d470 f63c
000000a0: bb6f fd3c e03d bebb 604c 9cbb 2ec5 113b
000000b0: 877c 8a3d eb81 2d3c 7c1f 9c3b 564b 6f3b
000000c0: 3e51 333d f53c 473c 3a1e 0ebd 9197 07bd
000000d0: 2411 003d 3b78 38bd 5410 443d af02 9b3d
000000e0: cf2e b9bd 434c 0f3d b088 82bd ac5a 5d3d
000000f0: d6ce 49bd 8613 1f3b 825b 73bd e41b 0fbd
00000100: 0c96 32bd 7836 15be bf74 753c d41f 093c
00000110: 3661 7fbd cb93 963d 6916 81bc 7e2d 8d3d
00000120: c5b4 e4bc 709a 4a3d b329 ab3d e2af 983c
00000130: fad3 3d3d d5d6 9fbd 5b5b 2a3d 76ed e83c
00000140: 8012 2b3d 5af5 c53c 6045 03bd ecb1 a6bc
00000150: 81be d9bc 8eed 06bc 0ed9 d73c 6438 b2bc
00000160: 2c52 cfbb cb26 7ebc aa6f 4c3d bfb6 10bd
00000170: c57c 39bd a1f1 a6bb 8866 48b9 7a62 6a3b
00000180: 9d68 0abd 7aae 4d3d 21bd 033d ec16 f6bb
00000190: d721 bcbc bce0 ddbc 895d 37bd dcca ed3b
000001a0: 3b78 32bd daa8 b9bc 2f8b 293c d39f 5aba
000001b0: 8845 e7bd dde2 3ebc 3ac2 a93c 7b42 bdbc
000001c0: 0774 023c 96af cebb ee70 4a3d c807 323c
000001d0: 4f01 34bd 1d13 0bbd a994 d63a a69d 083b
000001e0: 51b5 c6bc 38fd cd3c 5439 ca3c 0750 f83b
000001f0: 317e 613c 4126 563d 0fc6 2cbd 7e10 b6bb
00000200: 88ac 393d 6793 a03c f160 7f3c 3e90 a93d
00000210: 4bbd 043d 57e5 7e3c f881 b0bb 2082 71bd
00000220: 9ca0 8dbc f0ad 773b d6f1 65bd 4b2e 283d
00000230: ab94 48bc 013c 3c3d 3478 a53c f022 a9bb
00000240: 60c0 94bc ede5 863d 3f85 423a 380b 23bd
00000250: 0c07 2d3d 56cd 82bd 719b 7d3d 0278 d2bc
00000260: 3fd9 aa3c 6cdf 0b3d 6f69 b83c 1d04 893c
00000270: d7e9 12bd 72a4 8b3d 11cb dabd eb91 bd3d
00000280: f9db 70bc dbd0 89bd 8c18 6f3c a992 2a3d
00000290: 3904 74bc 9ef6 8a3d 6c46 af3c b626 c33c
000002a0: 8c09 423c dffc 883d e50f 1e3d ae23 6bbd
000002b0: 4c16 b8bc f371 89bc 86d2 72bd 6284 c63c
000002c0: ac0b 50bd a39b 3cbd c009 9ebb d794 de3b
000002d0: 4b1e 06bd a48e cdbd eddd 0f3c e104 103c
000002e0: b491 86bc c4e2 e8bc 5419 afbc 3bed 1a3d
000002f0: cd89 36bb d34c 843b 047d 7a3b a9d9 d9ba
00000300: 5467 0b3d e052 533c f0cc bebd 5af6 e23c
00000310: 20c4 99bd 7362 19bc 80f7 13bd 198e 14bc
00000320: 1cc5 ae3b 6934 3cbc e0ad 403d 469f 40bd
00000330: 6b4b 0dbe c77d 673c 5f8a a5b9 6acd 31bd
00000340: bd05 623d 30fe 9c3d 8d61 35bd f386 363d
00000350: ff76 3ebd 6e95 383c c346 51bd 5e04 cb3c
00000360: dce9 09bd b8c6 c83c 316a 2abd 2253 fabc
00000370: d5ed 4c3d 6ea2 bc3d 321e 31bd c496 b93c
00000380: 1e3e 01bd f9a6 253d 4bec c63c 33b6 5f3d
00000390: f7ef f83c 214d e5bb ee10 59bd 32e9 83bc
000003a0: 9b2e 85bc 2ca3 0dbd c819 2a3d 62b4 8e3d
000003b0: f809 f6bc 4f98 51bd 7faa cf3b 1967 cdbc
000003c0: 94a7 173d ed2e 8fbd afaf 8fbc 2d31 c53b
000003d0: 2a70 81bd 8cd2 fd3b 07b6 9f3b 7967 09bd
000003e0: d0b1 70bd 12d6 c83c 1bc6 debc a002 b4bc
000003f0: 6ab1 bf3d 5dca 8cbc 3263 d63c 1431 8bbd

network_body.linear_encoder.seq_layers.2.bias f4 [128]
0.04130921 0.12975313 -0.31630263 -0.31410223 0.19029847 0.31869084 -0.330913 -0.12289977
-0.057340447 -0.14046636 0.042585783 0.05301254 -0.24159835 0.0139250085 0.09042561 0.2808549
0.19756654 -0.038466778 -0.040127575 -0.16899094 -0.1348537 -0.008610624 -0.12606983 -0.122872755
0.29489937 -0.32512364 -0.07732745 -0.14312488 -0.16843082 -0.042384245 0.1766926 0.035345893
-0.031769708 -0.08381298 0.020454412 0.13997072 -0.0950647 -0.2066341 -0.10321548 -0.2632663
0.09438637 -0.1026901 0.18943019 0.033165835 -0.009842649 -0.14812207 -0.031619154 -0.13238741
-0.11612854 -0.37669978 0.22719835 -0.26524976 0.060476232 -0.19834115 -0.028043475 -0.025585031
0.008365449 0.14580314 -0.0514472 -0.12190545 -0.21025729 -0.16934325 -0.11631109 -0.007933879
0.0029674685 -0.24443133 -0.033141892 -0.15381019 -0.23493177 -0.01095878 0.31947258 -0.047990795
-0.27870953 -0.31190628 -0.16162272 -0.12068571 -0.02537782 -0.0888886 0.1442943 -0.048099224
-0.3119482 -0.12198 -0.07084606 -0.026527248 -0.04013255 0.0045860177 0.11423799 -0.11557484
-0.18919896 -0.0152349835 -0.002944225 0.14967307 0.061379734 0.10011199 -0.035820805 0.17295492
-0.036407653 0.2729555 -0.107882224 0.056020804 0.096453555 -0.025433557 -0.24316308 -0.0770336
-0.044663154 -0.24009812 -0.1274832 -0.1900538 -0.090315424 -0.11714092 -0.33676964 -0.21283795
-0.28768107 0.19495417 -0.03612727 -0.16106005 0.02833183 -0.15647326 -0.14986171 -0.11005356
-0.0798237 -0.0044123987 -0.056612816 -0.013131452 0.041048754 -0.17510982 -0.34691107 -0.13648643
00000000: d933 293d 01de 043e 6bf2 a1be 02d2 a0be
00000010: 9add 423e 722b a33e 6e6d a9be e0b2 fbbd
00000020: d1dd 6abd 6ad6 0fbe 6e6e 2e3d ad23 593d
00000030: 8f65 77be b825 643c 1031 b93d 37cc 8f3e
00000040: e24e 4a3e 578f 1dbd d05c 24bd f60b 2dbe
00000050: 1717 0abe 9313 0dbc 7318 01be b6a4 fbbd
00000060: 0dfd 963e 9b76 a6be db5d 9ebd 548f 12be
00000070: 2179 2cbe 1a9b 2dbd e8ee 343e dbc6 103d
00000080: f420 02bd 24a6 abbd 0390 a73c 7c54 0f3e
00000090: 48b1 c2bd e497 53be a362 d3bd d7ca 86be
000000a0: a44d c13d 304f d2bd fdf9 413e e6d8 073d
000000b0: 1043 21bc 50ad 17be 1683 01bd 9190 07be
000000c0: cdd4 edbd cbde c0be afa6 683e d1ce 87be
000000d0: edb5 773d f119 4bbe 6ebb e5bc b397 d1bc
000000e0: 3c0f 093c 6b4d 153e 4dba 52bd 91a9 f9bd
000000f0: b04d 57be 5168 2dbe 8234 eebd 1afd 01bc
00000100: dc79 423b 354c 7abe cbbf 07bd 6b80 1dbe
00000110: f491 70be 748c 33bc e991 a33e ff91 44bd
00000120: 04b3 8ebe 2eb2 9fbe 6d80 25be 122a f7bd
00000130: 25e5 cfbc 3a0b b6bd e3c1 133e b103 45bd
00000140: adb7 9fbe a6d0 f9bd bd17 91bd ac4f d9bc
00000150: 0762 24bd 4e46 963b 9bf5 e93d 80b2 ecbd
00000160: 5fbd 41be 279c 79bc e6f3 40bb e643 193e
00000170: 5169 7b3d 8407 cd3d d6b8 12bd 181b 313e
00000180: 3120 15bd d3c0 8b3e 5bf1 dcbd 1276 653d
00000190: 7189 c53d 095a d0bc beff 78be cbc3 9dbd
000001a0: b6f0 36bd 48dc 75be f58a 02be 779d 42be
000001b0: 4bf7 b8bd 94e7 efbd 126d acbe 31f2 59be
000001c0: ef4a 93be 11a2 473e 30fa 13bd edec 24be
000001d0: 2718 e83c 873a 20be 5975 19be c363 e1bd
000001e0: 9c7a a3bd e295 90bb d7e2 67bd 4d25 57bc
000001f0: bd22 283d fd4f 33be 549e b1be 19c3 0bbe

network_body.linear_encoder.seq_layers.2.weight f4 [128, 128]
-0.06813728 0.06277391 0.043619655 0.2771784 -0.016769912 0.00648273 -0.025598854 0.21882536
0.16835487 0.11775326 0.27940866 -0.17346978 -0.15433238 -0.17377922 0.21617037 -0.10236979
-0.15692142 -0.02794401 0.09172208 -0.017802577 0.23178968 -0.05966987 0.09884816 0.15779512
-0.2414333 0.068613425 -0.04687969 -0.1884855 0.1496574 0.15499629 0.07737629 -0.11583672
-0.23772822 0.31952545 0.15643118 -0.06382273 0.0412263 -0.1393296 0.020361805 0.12712803
0.087257385 -0.21727034 -0.07074537 0.1501275 -0.0831601 0.23086588 0.30750978 0.3635883
0.24717054 0.035634007 0.007264018 -0.18800534 0.024571598 0.089024976 0.2172445 -0.07703576
-0.3076796 0.24174802 0.25579736 0.028849127 -0.10464746 0.14459227 -0.2657485 -0.12605865
0.070369005 0.004371391 -0.057202503 0.15344325 0.027064323 -0.14101233 -0.27917287 0.18970333
-0.20688327 -0.13651969 -0.29522565 0.1904886 -0.2310977 0.094863094 0.0020499576 0.22083403
-0.173374 -0.06423588 -0.19548915 -0.14505838 0.20409042 0.25604677 -0.19296005 -0.11240559
0.2670673 -0.27157438 -0.18588047 0.13971275 -0.0033117454 0.17113066 0.03313289 -0.10606486
0.1745249 0.2184164 0.0754509 -0.05017682 -0.12781806 0.18789318 -0.18105967 -0.009998488
0.0772771 -0.100489154 0.07552398 0.03993353 0.06547216 0.03709423 -0.14301927 0.31428665
-0.22362116 -0.27560714 -0.2609537 0.10124995 0.16320507 0.026239857 0.16241898 0.250562
0.16689351 0.077310234 0.028788421 -0.054534167 0.050575364 -0.16549739 -0.16042756 0.12547606
-0.00072736264 0.058503285 -0.020292569 0.119089894 -0.07761504 0.01892739 0.006756926 0.23044947
0.16616069 0.0771352 0.3302766 -0.4084527 -0.14337729 -0.26908574 0.068955824 0.0075432705
-0.32589048 -0.011977719 0.109548144 0.082365856 0.026850693 0.025405023 0.13199267 0.11415569
-0.15062706 -0.086515956 -0.02959794 -0.22365904 0.11360831 0.18360718 0.0011736741 -0.16652451
0.107730515 0.1025688 0.15539218 -0.010227304 0.113174945 -0.23316307 0.047217663 -0.07776363
0.12417238 -0.24690162 -0.2545328 0.29747343 -0.15020372 0.3074395 0.036580466 0.2515406
0.24476907 0.05987943 0.03730079 -0.23203126 -0.09307054 -0.15903038 0.21613057 -0.17541963
-0.28503364 0.13274929 0.2580197 0.18277575 -0.28512722 0.050290972 -0.2559056 -0.0037545718
0.26214713 0.19400091 0.03587422 -0.027382258 0.16508658 -0.2846846 -0.18508814 0.21514946
-0.16213952 -0.048284877 -0.010085793 0.3036232 -0.24173214 0.021555223 -0.026859822 0.05493969
-0.1356911 0.07490357 -0.17757207 0.016726138 0.39577287 0.02577208 -0.21531281 0.08769815
0.34552935 -0.08118971 -0.2874552 -0.16825451 0.104940064 0.30458242 0.08221497 -0.036311183
0.23281908 0.177681 -0.13292712 -0.017795794 -0.18928531 -0.014798724 -0.012657671 -0.07745052
0.06352223 -0.14325376 0.24291128 0.036421977 0.14338945 0.10356164 -0.14187643 0.15894957
-0.114641346 -0.0065772375 -0.16071203 0.110676356 0.27813655 -0.061589472 0.1574438 0.12607625
0.08569717 0.2550146 0.011068038 0.10232615 -0.06113475 0.11028989 -0.28723472 0.4215164
00000000: 8f8b 8bbd 9c8f 803d 86aa 323d 54ea 8d3e
00000010: 0e61 89bc 156d d43b b0b4 d1bc c113 603e
00000020: 3865 2c3e 9f28 f13d a70e 8f3e 10a2 31be
00000030: 4f09 1ebe 2ef3 31be c45b 5d3e 41a7 d1bd
00000040: 02b0 20be d6ea e4bc c9d8 bb3d b6d6 91bc
00000050: 465a 6d3e 6568 74bd e770 ca3d 0b95 213e
00000060: 4a3a 77be 3285 8c3d eb04 40bd 5802 41be
00000070: ca3f 193e 59b7 1e3e 7677 9e3d cd3b edbd
00000080: 076f 73be d798 a33e 7f2f 203e 7eb5 82bd
00000090: e9dc 283d 6bac 0ebe cdcd a63c da2d 023e
000000a0: 00b4 b23d 1e7c 5ebe f3e2 90bd 06bb 193e
000000b0: d84f aabd 1b68 6c3e ec71 9d3e 3f28 ba3e
000000c0: 461a 7d3e f7f4 113d 0007 ee3b 7984 40be
000000d0: 604a c93c ba52 b63d 5875 5e3e edc4 9dbd
000000e0: 2e88 9dbe cb8c 773e dff7 823e 0155 ec3c
000000f0: 6851 d6bd ff0f 143e 3010 88be 8515 01be
00000100: a01d 903d e33d 8f3b 2c4d 6abd 3a20 1d3e
00000110: 00b6 dd3c 8965 10be bfef 8ebe 9741 423e
00000120: 35d9 53be d1cb 0bbe d127 97be 720f 433e
00000130: e0a4 6cbe 9547 c23d 9558 063b 5122 623e
00000140: f488 31be 1a8e 83bd 4f2e 48be 2f8a 14be
00000150: 14fd 503e 9018 833e 5297 45be e734 e6bd
00000160: 0cbd 883e cc0b 8bbe 7357 3ebe dc10 0f3e
00000170: de09 59bb e03c 2f3e 5ab6 073d 8938 d9bd
00000180: a8b6 323e 8ca8 5f3e 0086 9a3d 3686 4dbd
00000190: bde2 02be 1267 403e b567 39be b3d0 23bc
000001a0: 7543 9e3d 42cd cdbd 51ac 9a3d 5791 233d
000001b0: 4516 863d 1ff0 173d a573 12be 2eea a03e
000001c0: f2fc 64be 611c 8dbe b99b 85be 225c cf3d
000001d0: 3b1f 273e f8f4 d63c 2951 263e aa49 803e
000001e0: 22e6 2a3e d454 9e3d b2d5 eb3c 385f 5fbd
000001f0: 1d28 4f3d 2678 29be 1f47 24be cc7c 003e
00000200: 7bac 3eba 24a1 6f3d 9a3c a6bc 67e5 f33d
00000210: a2f4 9ebd 9d0d 9b3c 3469 dd3b f2fa 6b3e
00000220: 0726 2a3e 0ff9 9d3d 041a a93e b620 d1be
00000230: 7fd1 12be 9bc5 89be b638 8d3d 8a2d f73b
00000240: 1edb a6be 323e 44bc c75a e03d 6eaf a83d
00000250: fcf5 db3c 321e d03c 1629 073e 75ca e93d
00000260: fb3d 1abe 472f b1bd 6177 f2bc e006 65be
00000270: 79ab e83d 8503 3c3e f8d5 993a 6785 2abe
00000280: d1a1 dc3d 970f d23d 211f 1f3e 6c90 27bc
00000290: 44c8 e73d 4dc2 6ebe 4f67 413d 8a42 9fbd
000002a0: 174e fe3d c7d3 7cbe 2052 82be 704e 983e
000002b0: 01cf 19be b668 9d3e 66d5 153d eec9 803e
000002c0: bea4 7a3e 2244 753d b7c8 183d 9a99 6dbe
000002d0: c49b bebd dcd8 22be 5551 5d3e 34a1 33be
000002e0: eeef 91be 6eef 073e 281b 843e 9129 3b3e
000002f0: 32fc 91be e8fd 4d3d 0f06 83be 430f 76bb
00000300: 2638 863e 2da8 463e d9f0 123d c250 e0bc
00000310: 750c 293e 2ec2 91be bf87 3dbe 2450 5c3e
00000320: e707 26be 5dc6 45bd e23e 25bc 8074 9b3e
00000330: a188 77be 9494 b03c 2109 dcbc 7108 613d
00000340: 9cf2 0abe 0b67 993d 74d5 35be 4105 893c
00000350: bea2 ca3e f81f d33c f67a 5cbe 169b b33d
00000360: 39e9 b03e ca46 a6bd 542d 93be e94a 2cbe
00000370: d1ea d63d 3af2 9b3e 5260 a83d 09bb 14bd
00000380: 2068 6e3e 02f2 353e 0c1e 08be 7cc8 91bc
00000390: 02d4 41be 5976 72bc 1f62 4fbc 619e 9ebd
000003a0: f117 823d 1db1 12be bcbd 783e 362f 153d
000003b0: afd4 123e 2018 d43d 0e48 11be adc3 223e
000003c0: 15c9 eabd de85 d7bb b291 24be 49aa e23d
000003d0: ea67 8e3e 3e45 7cbd f338 213e 221a 013e
000003e0: ff81 af3d 4691 823e b756 353c 5f90 d13d
000003f0: 6e68 7abd aadf e13d 6e10 93be ffd0 d73e
