results/PacmanOnly_imitation1/PacmanMlAgent/PacmanMlAgent-499942.onnx (onnx, 377078 bytes, 6 tensors)

action_model._discrete_distribution.branches.0.bias f4 [5]
0.20360932 -0.037330642 -0.08410389 -0.12541384 -0.057714522
00000000: f67e 503e 04e8 18bd a93e acbd 7c6c 00be
00000010: 1066 6cbd

action_model._discrete_distribution.branches.0.weight f4 [5, 128]
0.0018523466 0.014224679 -0.0645299 -0.16263671 0.03704795 0.05222469 -0.02087556 -0.0021745353
-0.29935473 -0.010360674 0.0033419977 0.09098501 -0.041590236 -0.0031962912 0.0031932474 0.032473456
0.0392094 0.0045359097 -0.01366499 -0.0046929326 -0.2840963 -0.009046786 -0.23044409 4.202865e-05
0.040468052 -0.011182378 -0.007656276 -0.09118989 -0.060451087 0.0039639114 0.020355258 0.006891291
-0.002612677 0.0024177085 -0.0010596777 0.016016236 -0.015866593 -0.23530701 0.022116762 -0.0039362945
0.010248407 -0.048339922 0.02069566 0.014125873 -0.006618573 -0.009776243 -0.0059729344 -0.0058179204
0.0001230918 -0.14506498 0.0071575455 -0.015937869 0.0019473941 -0.027585384 -0.000499508 0.004564903
0.005130046 0.010825715 -0.010448331 -0.018852312 -0.01334356 -0.0071229003 0.012473152 -0.05314676
-0.007290709 -0.04174169 -0.25759122 -0.005795349 -0.22987318 0.0080208285 0.03558666 0.014178556
-0.18375021 -0.14866346 -0.014281393 -0.2562398 -0.25810608 -0.01161067 0.008421253 0.106715105
-0.117519096 -0.18056464 -0.0450004 0.01522809 -0.0009839992 -0.0019190316 0.007670994 -0.018848436
-0.009338508 -0.24466737 -0.009759004 0.04497452 0.010416916 0.005422918 -0.009061039 0.0027342988
0.003770974 0.06142022 -0.012387055 0.011181688 0.007471841 0.00022505752 -0.1425755 -0.2710195
0.01638368 -0.013454905 -0.011427225 -0.0045609437 0.040075906 -0.023427017 -0.185349 -0.06137628
-0.090960436 0.024927663 -0.0102702 -0.021019293 -0.0003131432 -0.015661802 -0.021373179 -0.0036285599
-0.1592165 0.009674879 0.020085841 0.013665042 0.004953135 -0.2005692 -0.09941233 -0.010949851
0.0017667983 0.009216146 0.06170333 0.17272297 -0.0030755636 -0.017667247 0.012729435 -0.00012495425
0.061575048 -0.011331797 0.013442862 0.2871202 0.2045615 0.0023209262 -0.0060546305 -0.024664497
0.03296579 0.006486726 0.002681706 0.006502181 0.19691335 6.073565e-06 -0.122615024 -0.0031561947
-0.00642935 0.007956379 0.009814091 -0.05724143 0.065653294 -0.014506427 0.004945041 0.014627726
0.0051208907 0.0027380711 0.019539827 -0.022457642 0.0017734761 0.027822236 0.0054149516 0.0025140601
0.0067188796 -0.020772267 -0.015140363 -0.005005668 -0.018895749 -0.00837087 -0.010713956 0.0015592874
-0.019131934 0.06707197 0.003224754 0.010509945 -0.005395665 0.0051992987 0.013291968 0.003098553
0.0016844799 0.003529464 -0.0040314877 -2.7889524e-05 0.026448525 -0.010823581 0.07234286 -0.0866587
0.00015621695 0.009109603 -0.007957789 -0.002200112 0.16820996 0.0019977046 -0.017309109 0.015114957
0.16334899 0.01814673 0.0011092131 -0.058869235 -0.15490015 -0.0012859496 -0.011785532 0.13815169
0.016686836 0.10415974 0.028374178 -0.030952476 -0.012516392 -0.009824441 0.009586628 0.017456148
0.004109152 0.07970865 0.007252366 -0.001231223 0.0046281437 0.0045055626 0.008912757 0.010348608
-0.004562377 -0.019214364 0.006962144 -0.01745673 0.0059114313 -0.0035224776 0.052568175 -0.0055059176
-0.010445671 0.006964727 0.03432715 0.007555243 0.029327815 -0.036793713 0.14242439 0.008600051
0.17952672 0.0013191664 0.0043352526 0.015559152 -0.0005714761 -0.009342887 0.008427956 0.006879903
0.08358195 -0.0064189374 -0.017896542 0.0035629221 0.00070954143 0.32567313 0.28031498 -0.005574526
00000000: 70ca f23a a10e 693c 4128 84bd 3d8a 26be
00000010: 97bf 173d 8ee9 553d 3903 abbc a682 0ebb
00000020: 0645 99be d1bf 29bc 6b05 5b3b 5956 ba3d
00000030: 865a 2abd de78 51bb cd45 513b e302 053d
00000040: 099a 203d f8a1 943b 1fe3 5fbc 2cc7 99bb
00000050: 1275 91be f938 14bc 89f9 6bbe eb47 3038
00000060: d4c1 253d 4b36 37bc 80e1 fabb c4c1 babd
00000070: 8f9b 77bd b3e3 813b 12c0 a63c 57d0 e13b
00000080: 7239 2bbb 6b72 1e3b e2e4 8aba 7b34 833c
00000090: a8fa 81bc 52f4 70be 362e b53c 08fc 80bb
000000a0: efe8 273c 1500 46bd f289 a93c 3570 673c
000000b0: 9de0 d8bb 892c 20bc 9bb8 c3bb 41a4 bebb
000000c0: 3412 0139 ea8b 14be d889 ea3b 2290 82bc
000000d0: b43f ff3a befa e1bc 6af1 02ba 2f95 953b
000000e0: f219 a83b 575e 313c 7a2f 2bbc 2a70 9abc
000000f0: f29e 5abc 3867 e9bb 315c 4c3c 6bb0 59bd
00000100: e6e6 eebb 56f9 2abd ffe2 83be e9e6 bdbb
00000110: e063 6bbe cb69 033c 51c3 113d 2d4d 683c
00000120: 0429 3cbe 3c3b 18be 81fc 69bc dd31 83be
00000130: 7b26 84be ae3a 3ebc 4cf9 093c 738d da3d
00000140: daad f0bd f0e5 38be 5752 38bd 3d7f 793c
00000150: 89f9 80ba 0488 fbba f65c fb3b 0968 9abc
00000160: 8b00 19bc 158a 7abe 3be4 1fbc 3437 383d
00000170: b6ab 2a3c bcb2 b13b c174 14bc ec31 333b
00000180: 7222 773b c593 7b3d 13f3 4abc 6633 373c
00000190: 58d6 f43b 6bfd 6b39 50ff 11be 11c3 8abe
000001a0: 1137 863c f671 5cbc 4139 3bbc f873 95bb
000001b0: a226 243d 04ea bfbc 21cc 3dbe b265 7bbd
000001c0: 7749 babd 1935 cc3c 5744 28bc a730 acbc
000001d0: 5e2d a4b9 2e4d 80bc ce16 afbc 22cd 6dbb
000001e0: a609 23be 6283 1e3c 108b a43c 57e3 5f3c
000001f0: e84d a23b 0362 4dbe b198 cbbd 0167 33bc
00000200: ea93 e73a 51ff 163c a2bc 7c3d 4ade 303e
00000210: 658f 49bb e7ba 90bc 1f8f 503c 2706 03b9
00000220: 1e36 7c3d 00a9 39bc 733f 5c3c 6b01 933e
00000230: 9278 513e ae1a 183b ec65 c6bb 330d cabc
00000240: 2307 073d 9a8e d43b 90bf 2f3b 3f10 d53b
00000250: a7a3 493e 87cb cb36 961d fbbd 29d8 4ebb
00000260: 4cad d2bb 795b 023c 48cb 203c fd75 6abd
00000270: 3c75 863d 5dac 6dbc 030a a23b 21a9 6f3c
00000280: 25cd a73b 3671 333b fd11 a03c 17f9 b7bc
00000290: fc73 e83a 75eb e33c e86f b13b eec2 243b
000002a0: 0c2a dc3b 9a2a aabc 490f 78bc 9606 a4bb
000002b0: 42cb 9abc f925 09bc 9789 2fbc 0161 cc3a
000002c0: 93ba 9cbc 075d 893d 6556 533b e831 2c3c
000002d0: 1ece b0bb e15e aa3b 8ec6 593c 1811 4b3b
000002e0: c4c9 dc3a 944e 673b 921a 84bb 4cf4 e9b7
000002f0: 94aa d83c 6455 31bc 7e28 943d 1e7a b1bd
00000300: 2bce 2339 7240 153c 6361 02bc c12f 10bb
00000310: 3b3f 2c3e eceb 023b d5cb 8dbc b9a4 773c
00000320: f544 273e 73a8 943c 0463 913a de20 71bd
00000330: 259e 1ebe 4f8d a8ba 1b18 41bc a377 0d3e
00000340: d5b2 883c b451 d53d f770 e83c 0c90 fdbc
00000350: 8e11 4dbc b1f6 20bc 3b11 1d3c 3200 8f3c
00000360: 11a6 863b 4a3e a33d 41a5 ed3b fd60 a1ba
00000370: afa7 973b 66a3 933b d006 123c 358d 293c
00000380: fe7f 95bb 7167 9dbc b222 e43b 6b01 8fbc
00000390: aeb4 c13b 5ed9 66bb ba51 573d fc6a b4bb
000003a0: 5224 2bbc 5d38 e43b a09a 0c3d f991 f73b
000003b0: e340 f03c 01b5 16bd b3d7 113e 3ae7 0c3c
000003c0: dad5 373e e1e7 ac3a bc0e 8e3b d0eb 7e3c
000003d0: 1dcf 15ba e912 19bc 6915 0a3c cf70 e13b
000003e0: 032d ab3d f355 d2bb c59b 92bc ea7f 693b
000003f0: 8500 3a3a a1be a63e 7285 8f3e 83aa b6bb

network_body.linear_encoder.seq_layers.0.bias f4 [128]
-0.04297214 -0.04198853 -0.16106711 0.29832366 -0.16208318 -0.09594496 0.11371389 0.22162463
0.2970042 -0.11738434 0.29704797 -0.26819617 -0.27582002 -0.26482806 0.27429882 0.0019634105
-0.27345482 -0.13438208 0.31070223 -0.14763492 -0.020571131 -0.04814671 -0.12622575 0.29936007
-0.27244478 -0.17638503 -0.0047463933 -0.2679808 0.2898739 0.29415643 -0.18569523 -0.27521276
-0.011126861 0.30922732 0.28695902 -0.0148003595 -0.10727026 -0.27377805 -0.023982774 -0.05472272
0.3018819 -0.28571022 -0.24782953 0.28131273 -0.26748177 0.30761695 0.28704822 0.28944868
0.31615964 -0.046970084 -0.039705213 -0.26461628 -0.09059279 -0.2606266 0.3066772 -0.2624029
-0.26756188 0.3056567 0.28044876 0.29186067 -0.26496318 0.28917262 -0.26079196 -0.010849291
0.27340114 0.013028498 -0.028605586 -0.16666871 0.3019675 -0.25971636 -0.2538008 0.29121116
-0.2545765 -0.2619328 -0.2604286 0.2924547 -0.2754495 -0.09463524 0.22441013 -0.04731768
-0.26718247 -0.18097492 -0.27087343 -0.2533245 0.3118088 -0.17868242 -0.2482617 -0.024401939
0.28848547 -0.2688622 -0.2512586 -0.03583063 -0.21198341 0.29489058 -8.7984714e-05 -0.25726366
0.30253765 0.3006916 -0.12523273 -0.03583375 -0.28991166 -0.06977413 0.05402477 -0.20516849
-0.18323831 -0.2686469 0.28180927 0.06970533 0.3000324 -0.013926486 -0.2698709 0.30881712
-0.2783514 -0.27608082 -0.26227018 -0.04110439 0.2924497 -0.12188421 0.3009729 0.29005843
-0.011250895 0.28526476 -0.036943186 -0.12031748 -0.0667972 -0.10321158 -0.25681245 0.28989944
00000000: 8e03 30bd 2afc 2bbd c7ee 24be e1bd 983e
00000010: 22f9 25be cb7e c4bd d4e2 e83d 91f1 623e
00000020: ef10 983e 3367 f0bd ac16 983e 0251 89be
00000030: 4838 8dbe 8b97 87be e570 8c3e 90ac 003b
00000040: 4502 8cbe 759b 09be 5d14 9f3e 9c2d 17be
00000050: ca84 a8bc 7c35 45bd 5341 01be b945 993e
00000060: e27d 8bbe 479e 34be a287 9bbb c834 89be
00000070: 5a6a 943e ac9b 963e e426 3ebe b0e8 8cbe
00000080: 704d 36bc 0b53 9e3e 4bec 923e 357d 72bc
00000090: 83b0 dbbd a32c 8cbe 8677 c4bc ee24 60bd
000000a0: 4490 9a3e 9c48 92be 06c7 7dbe 3908 903e
000000b0: 5ff3 88be f87f 9d3e fcf7 923e 9e32 943e
000000c0: addf a13e b463 40bd efa1 22bd c97b 87be
000000d0: b688 b9bd da70 85be cb04 9d3e ac59 86be
000000e0: dffd 88be 097f 9c3e fb96 8f3e c36e 953e
000000f0: 41a9 87be 6f0e 943e 8686 85be 3ac1 31bc
00000100: 3cfb 8b3e 7b75 553c 4356 eabc 34ab 2abe
00000110: 7c9b 9a3e 8bf9 84be 2ef2 81be a119 953e
00000120: da57 82be 0e1c 86be e656 85be 9fbc 953e
00000130: b807 8dbe 1fd0 c1bd c5cb 653e 2fd0 41bd
00000140: 24cc 88be 7d51 39be ecaf 8abe c0b3 81be
00000150: 67a5 9f3e 86f8 36be 5138 7ebe 93e6 c7bc
00000160: 5eb4 933e 4ea8 89be f8a4 80be 24c3 12bd
00000170: 2e12 59be e6fb 963e 6f84 b8b8 10b8 83be
00000180: 37e6 9a3e 40f4 993e 023d 00be 69c6 12bd
00000190: 4d6f 94be bde5 8ebd 1449 5d3d b017 52be
000001a0: d3a2 3bbe 168c 89be 4e49 903e abc1 8e3d
000001b0: d99d 993e ea2b 64bc 852c 8abe 471d 9e3e
000001c0: 1384 8ebe 775a 8dbe 4748 86be 145d 28bd
000001d0: f8bb 953e 6e9e f9bd 1f19 9a3e 8a82 943e
000001e0: ad55 38bc 390e 923e bd51 17bd 0369 f6bd
000001f0: f8cc 88bd 9860 d3bd ec7c 83be b36d 943e

network_body.linear_encoder.seq_layers.0.weight f4 [128, 597]
-0.018213859 -0.021065537 0.09299129 0.012813733 -0.006681677 -0.043543436 0.017692018 -0.05743377
-0.064094044 0.03137489 -0.070512585 -0.03851866 -0.03376503 0.038446285 -0.014460257 0.020418946
0.05978891 0.011135044 0.02806162 -0.116481826 0.029862158 0.02640839 -0.058133576 0.07082894
-0.021029666 0.010869068 0.023626694 -0.11202945 0.004313919 -0.018993268 -0.052083 0.001949015
0.042847715 -0.043663297 0.030911606 -0.032587152 0.005143437 -0.0097091645 -0.019866094 0.030083098
0.030937066 -0.005805716 -0.004769847 0.0022242772 0.06762033 0.010590057 0.0047644954 0.003651341
0.04377865 0.012160529 -0.034696795 -0.03310353 0.031266347 -0.045036536 0.047867134 0.07568871
-0.09042131 0.03498484 -0.06373727 0.05404155 -0.04926952 0.0024273111 -0.05941344 -0.034938708
-0.043600127 -0.1457156 0.014981448 0.008369405 -0.062348567 0.07352408 -0.015757756 0.068934426
-0.027918229 0.04946369 0.08357563 0.018638555 0.046344735 -0.07804648 0.04159103 0.028433543
0.04176569 0.024164844 -0.032048583 -0.020348512 -0.026580097 -0.008235348 0.026348617 -0.021755405
-0.0063269343 -0.015512179 0.04991118 -0.03533053 -0.045285005 -0.0050947224 -0.00019111682 0.0035764263
-0.033791173 0.050215222 0.03216279 -0.0075100567 -0.022965355 -0.0270847 -0.044766936 0.0072568487
-0.043571692 -0.022663523 0.010348125 -0.00083398557 -0.11292559 -0.011650768 0.020722497 -0.02310299
0.007962233 -0.0063075526 0.049424104 0.010866113 -0.04394656 -0.033953775 0.0016371208 0.002084592
-0.02425638 0.025145158 0.02468554 0.0075778994 0.0137629965 0.052282576 -0.04218107 -0.0055561652
0.045330554 0.019601537 0.0155870775 0.08279465 0.032407086 0.015557609 -0.005386587 -0.058961987
-0.017288499 0.0037792884 -0.056138836 0.041059773 -0.012242476 0.04595566 0.020198919 -0.0051616356
-0.018158138 0.065868236 0.0007420368 -0.03980562 0.04224305 -0.06386821 0.06191582 -0.02569199
0.020855544 0.03414862 0.022511212 0.016725594 -0.03586754 0.06818475 -0.10683263 0.09256347
-0.014700883 -0.06729289 0.014593255 0.041643772 -0.014893585 0.0678532 0.021395884 0.02382217
0.011843096 0.06688856 0.038589377 -0.057407074 -0.02247157 -0.016777968 -0.059282802 0.024233047
-0.05079238 -0.046046864 -0.0048229396 0.0067926454 -0.032743733 -0.10036972 0.008780939 0.008790226
-0.016426899 -0.028428443 -0.021374382 0.037823897 -0.0027853132 0.0040374785 0.0038221488 -0.0016620654
0.03403409 0.012898177 -0.093164325 0.02770536 -0.07508111 -0.009361851 -0.036124706 -0.009067082
0.005333556 -0.011487105 0.04704082 -0.047026895 -0.13798301 0.014129109 -0.00031574347 -0.04340879
0.055181254 0.0766567 -0.044282485 0.04456229 -0.046500202 0.011266096 -0.051092874 0.024782356
-0.03367029 0.024508819 -0.04160518 -0.030557219 0.0500315 0.092106685 -0.043241687 0.022654898
-0.03155338 0.04044244 0.024282595 0.054617118 0.030387862 -0.00699772 -0.05299466 -0.016102407
-0.016257575 -0.03457944 0.041528493 0.06967999 -0.03003405 -0.051170643 0.0063374634 -0.025073575
0.03702505 -0.06991372 -0.017539827 0.006017825 -0.06320222 0.0077460464 0.0048739943 -0.033545945
-0.058763325 0.02451614 -0.027194073 -0.021973908 0.09360011 -0.017186338 0.026170347 -0.0679647
00000000: 3b35 95bc a291 acbc 3872 be3d b1f0 513c
00000010: f8f1 dabb 9a5a 32bd daee 903c ac3f 6bbd
00000020: bd43 83bd f582 003d e768 90bd bec5 1dbd
00000030: 334d 0abd da79 1d3d b7ea 6cbc a245 a73c
00000040: 37e5 743d c26f 363c 7ce1 e53c 068e eebd
00000050: 7ca1 f43c 6856 d83c 791d 6ebd c30e 913d
00000060: 6846 acbc 2d14 323c c58c c13c b26f e5bd
00000070: c75b 8d3b c597 9bbc fc54 55bd 1776 ff3a
00000080: 1681 2f3d 49d8 32bd 563a fd3c 1b7a 05bd
00000090: 478a a83b 3013 1fbc 38be a2bc d470 f63c
000000a0: bb6f fd3c e03d bebb 604c 9cbb 2ec5 113b
000000b0: 877c 8a3d eb81 2d3c 7c1f 9c3b 564b 6f3b
000000c0: 3e51 333d f53c 473c 3a1e 0ebd 9197 07bd
000000d0: 2411 003d 3b78 38bd 5410 443d af02 9b3d
000000e0: cf2e b9bd 434c 0f3d b088 82bd ac5a 5d3d
000000f0: d6ce 49bd 8613 1f3b 825b 73bd e41b 0fbd
00000100: 0c96 32bd 7836 15be bf74 753c d41f 093c
00000110: 3661 7fbd cb93 963d 6916 81bc 7e2d 8d3d
00000120: c5b4 e4bc 709a 4a3d b329 ab3d e2af 983c
00000130: fad3 3d3d d5d6 9fbd 5b5b 2a3d 76ed e83c
00000140: 8012 2b3d 5af5 c53c 6045 03bd ecb1 a6bc
00000150: 81be d9bc 8eed 06bc 0ed9 d73c 6438 b2bc
00000160: 2c52 cfbb cb26 7ebc aa6f 4c3d bfb6 10bd
00000170: c57c 39bd a1f1 a6bb 8866 48b9 7a62 6a3b
00000180: 9d68 0abd 7aae 4d3d 21bd 033d ec16 f6bb
00000190: d721 bcbc bce0 ddbc 895d 37bd dcca ed3b
000001a0: 3b78 32bd daa8 b9bc 2f8b 293c d39f 5aba
000001b0: 8845 e7bd dde2 3ebc 3ac2 a93c 7b42 bdbc
000001c0: 0774 023c 96af cebb ee70 4a3d c807 323c
000001d0: 4f01 34bd 1d13 0bbd a994 d63a a69d 083b
000001e0: 51b5 c6bc 38fd cd3c 5439 ca3c 0750 f83b
000001f0: 317e 613c 4126 563d 0fc6 2cbd 7e10 b6bb
00000200: 88ac 393d 6793 a03c f160 7f3c 3e90 a93d
00000210: 4bbd 043d 57e5 7e3c f881 b0bb 2082 71bd
00000220: 9ca0 8dbc f0ad 773b d6f1 65bd 4b2e 283d
00000230: ab94 48bc 013c 3c3d 3478 a53c f022 a9bb
00000240: 60c0 94bc ede5 863d 3f85 423a 380b 23bd
00000250: 0c07 2d3d 56cd 82bd 719b 7d3d 0278 d2bc
00000260: 3fd9 aa3c 6cdf 0b3d 6f69 b83c 1d04 893c
00000270: d7e9 12bd 72a4 8b3d 11cb dabd eb91 bd3d
00000280: f9db 70bc dbd0 89bd 8c18 6f3c a992 2a3d
00000290: 3904 74bc 9ef6 8a3d 6c46 af3c b626 c33c
000002a0: 8c09 423c dffc 883d e50f 1e3d ae23 6bbd
000002b0: 4c16 b8bc f371 89bc 86d2 72bd 6284 c63c
000002c0: ac0b 50bd a39b 3cbd c009 9ebb d794 de3b
000002d0: 4b1e 06bd a48e cdbd eddd 0f3c e104 103c
000002e0: b491 86bc c4e2 e8bc 5419 afbc 3bed 1a3d
000002f0: cd89 36bb d34c 843b 047d 7a3b a9d9 d9ba
00000300: 5467 0b3d e052 533c f0cc bebd 5af6 e23c
00000310: 20c4 99bd 7362 19bc 80f7 13bd 198e 14bc
00000320: 1cc5 ae3b 6934 3cbc e0ad 403d 469f 40bd
00000330: 6b4b 0dbe c77d 673c 5f8a a5b9 6acd 31bd
00000340: bd05 623d 30fe 9c3d 8d61 35bd f386 363d
00000350: ff76 3ebd 6e95 383c c346 51bd 5e04 cb3c
00000360: dce9 09bd b8c6 c83c 316a 2abd 2253 fabc
00000370: d5ed 4c3d 6ea2 bc3d 321e 31bd c496 b93c
00000380: 1e3e 01bd f9a6 253d 4bec c63c 33b6 5f3d
00000390: f7ef f83c 214d e5bb ee10 59bd 32e9 83bc
000003a0: 9b2e 85bc 2ca3 0dbd c819 2a3d 62b4 8e3d
000003b0: f809 f6bc 4f98 51bd 7faa cf3b 1967 cdbc
000003c0: 94a7 173d ed2e 8fbd afaf 8fbc 2d31 c53b
000003d0: 2a70 81bd 8cd2 fd3b 07b6 9f3b 7967 09bd
000003e0: d0b1 70bd 12d6 c83c 1bc6 debc a002 b4bc
000003f0: 6ab1 bf3d 5dca 8cbc 3263 d63c 1431 8bbd

network_body.linear_encoder.seq_layers.2.bias f4 [128]
0.044076066 0.13445556 -0.3201207 -0.31841737 0.19246411 0.3248307 -0.3381526 -0.12943982
-0.056891717 -0.149911 0.047494315 0.057305302 -0.24506764 0.016741855 0.093360215 0.2838213
0.20689099 -0.039676934 -0.037570275 -0.16619706 -0.13470627 -0.0039986796 -0.12958044 -0.12963817
0.2996328 -0.32194555 -0.07523755 -0.1508092 -0.17392361 -0.046342038 0.18046814 0.041670445
-0.029245846 -0.088650525 0.026804475 0.13720256 -0.09517127 -0.2140188 -0.10684333 -0.26497203
0.099994645 -0.10428879 0.19176298 0.029407145 -0.013599633 -0.15769413 -0.034749907 -0.13977957
-0.12160085 -0.38396496 0.2264841 -0.26987892 0.058705162 -0.20548937 -0.022665262 -0.026174245
0.005644017 0.14983484 -0.05180903 -0.12376475 -0.21727797 -0.17371652 -0.11679022 -0.008503095
0.0044783526 -0.2541583 -0.032515995 -0.14871868 -0.24143167 -0.013666847 0.32248008 -0.04888207
-0.28395793 -0.32114676 -0.16404472 -0.12458931 -0.029391104 -0.08981084 0.14732137 -0.0470362
-0.3208964 -0.12316108 -0.07231035 -0.029488632 -0.044398874 0.00453823 0.11958764 -0.114513524
-0.19602679 -0.014123449 0.0006175145 0.15619156 0.06337881 0.09983065 -0.032256667 0.1796844
-0.03852088 0.28264073 -0.10737553 0.050420277 0.10111411 -0.025198039 -0.25156245 -0.07835854
-0.049051147 -0.24334411 -0.12696774 -0.19077115 -0.09245542 -0.12287661 -0.34250784 -0.22113103
-0.29410455 0.20022635 -0.03368337 -0.16526243 0.03293659 -0.16013329 -0.15333614 -0.11127798
-0.080082245 -0.0062479386 -0.061570995 -0.016347237 0.04003333 -0.17602429 -0.3508727 -0.14206962
00000000: 1b89 343d b8ae 093e dce6 a3be 9a07 a3be
00000010: 5015 453e 3650 a63e 5622 adbe df8b 04be
00000020: 4a07 69bd 4582 19be 6689 423d f7b8 6a3d
00000030: 03f3 7abe 3726 893c a433 bf3d 0751 913e
00000040: 3bdb 533e 4884 22bd 4ae3 19bd 902f 2abe
00000050: 71f0 09be 5b07 83bb bcb0 04be debf 04be
00000060: 7869 993e 0cd6 a4be 2516 9abd ba6d 1abe
00000070: 0819 32be 26d1 3dbd a4cc 383e a1ae 2a3d
00000080: fc94 efbc 688e b5bd 0f95 db3c d47e 0c3e
00000090: 28e9 c2bd bf27 5bbe add0 dabd 6aaa 87be
000000a0: fec9 cc3d 5c95 d5bd 845d 443e 41e7 f03c
000000b0: ffd0 5ebc 927a 21be eb55 0ebd 6022 0fbe
000000c0: de09 f9bd 0e97 c4be 73eb 673e 922d 8abe
000000d0: d374 703d ce6b 52be 80ac b9bc 5f6b d6bc
000000e0: 72f1 b83b 4e6e 193e b535 54bd 6078 fdbd
000000f0: 1e7e 5ebe bee2 31be b62f efbd 9150 0bbc
00000100: 25bf 923b 0921 82be 7e2f 05bd b649 18be
00000110: dd39 77be e9ea 5fbc 1c1c a53e 9138 48bd
00000120: ef62 91be 596d a4be 57fb 27be ae28 ffbd
00000130: 9dc5 f0bc bfee b7bd 6adb 163e 08a9 40bd
00000140: 884c a4be e03b fcbd 7317 94bd 2592 f1bc
00000150: 98db 35bd 6fb5 943b 5dea f43d 1186 eabd
00000160: 3fbb 48be 0a66 67bc b2e0 213a aef0 1f3e
00000170: c0cc 813d 0374 cc3d 911f 04bd 30ff 373e
00000180: 12c8 1dbd 49b6 903e b4e7 dbbd 7e85 4e3d
00000190: ea14 cf3d 1e6c cebc cbcc 80be 717a a0bd
000001a0: dbe9 48bd 332f 79be d503 02be 8359 43be
000001b0: 4459 bdbd bba6 fbbd 305d afbe 2c70 62be
000001c0: df94 96be 2308 4d3e 93f7 09bd 8e3a 29be
000001d0: 85e8 063d fbf9 23be 2604 1dbe b6e5 e3bd
000001e0: 2902 a4bd 82bb ccbb de31 7cbd a4ea 85bc
000001f0: fdf9 233d b63f 34be 96a5 b3be b37a 11be

network_body.linear_encoder.seq_layers.2.weight f4 [128, 128]
-0.06813728 0.06277391 0.043619934 0.27603033 -0.01676469 0.006483237 -0.025600206 0.2187086
0.16721219 0.11775326 0.2782642 -0.17269826 -0.15354347 -0.17301573 0.21512486 -0.10236979
-0.15613748 -0.027942674 0.090519466 -0.01780174 0.23178968 -0.05966987 0.09884816 0.15664113
-0.24065216 0.06861379 -0.04687969 -0.18771467 0.14854579 0.15386602 0.07738013 -0.11504878
-0.23772822 0.31832758 0.1553313 -0.06382273 0.0412263 -0.1385443 0.020361805 0.12712803
0.086093366 -0.21645622 -0.07002207 0.14905255 -0.0823903 0.22967955 0.30640897 0.36247712
0.24594623 0.035634007 0.007264018 -0.1872426 0.024571598 0.089774944 0.21605897 -0.07627724
-0.30690894 0.2405667 0.25472537 0.02772638 -0.103883155 0.14348179 -0.2649942 -0.12605865
0.06932439 0.004371391 -0.057202503 0.15344426 0.025899082 -0.14026052 -0.2784349 0.1885842
-0.20614262 -0.13576369 -0.2944722 0.18936364 -0.23030786 0.094863094 0.001855463 0.22083403
-0.17260437 -0.064232126 -0.19471143 -0.14432184 0.2028825 0.25604677 -0.19223621 -0.11240559
0.2659602 -0.27080148 -0.18514854 0.13971275 -0.0031777394 0.1699942 0.03313289 -0.10532038
0.17335962 0.2172572 0.0754509 -0.05017682 -0.12699506 0.18789318 -0.18105967 -0.009802632
0.07727985 -0.09971547 0.07444634 0.03993353 0.06431388 0.03709423 -0.14224386 0.31308886
-0.22282594 -0.274819 -0.26019683 0.096494354 0.16208322 0.026247187 0.16125819 0.24944614
0.16689351 0.07621669 0.028788421 -0.054534156 0.050575364 -0.16549739 -0.15968272 0.124363534
-0.00072734006 0.058503285 -0.020292567 0.11831117 -0.07761504 0.01892739 0.006756111 0.23044947
0.16538562 0.0771352 0.3295003 -0.40792906 -0.14284201 -0.2685676 0.0682463 0.0075432705
-0.32535863 -0.011977506 0.10873264 0.082365856 0.026850693 0.025405023 0.13199267 0.11337279
-0.15009649 -0.086515956 -0.02959794 -0.22313567 0.112854205 0.18284056 0.0011774137 -0.16598974
0.107730515 0.10175641 0.1546461 -0.010227304 0.113174945 -0.23262987 0.047217663 -0.07776363
0.123382874 -0.24634933 -0.25404197 0.2967446 -0.14968151 0.30663493 0.03583441 0.25078785
0.24393821 0.05987943 0.03730079 -0.23151422 -0.09307054 -0.15852162 0.2153265 -0.17490467
-0.2845108 0.13194785 0.25729302 0.18201408 -0.28460842 0.04953772 -0.25539353 -0.0037545718
0.26143825 0.19400091 0.03587422 -0.027376886 0.16429661 -0.28417414 -0.18458788 0.21439019
-0.16163698 -0.0477742 -0.009574562 0.30285996 -0.24119645 0.021555223 -0.026953334 0.05493969
-0.13516898 0.07490359 -0.17704377 0.017225724 0.39495343 0.02577225 -0.21482171 0.08769815
0.34477928 -0.080665 -0.28695783 -0.16825451 0.10500416 0.30381137 0.08221497 -0.035805885
0.23202892 0.176895 -0.13292712 -0.017795794 -0.1887268 -0.014798724 -0.012657671 -0.077348
0.06352223 -0.14272867 0.24218011 0.036421977 0.14260404 0.10356164 -0.14135012 0.15813719
-0.11410171 -0.006041664 -0.16019802 0.105915226 0.27737588 -0.06158946 0.15665653 0.12531948
0.08569717 0.25427324 0.011068038 0.10232615 -0.06113475 0.11028989 -0.28672838 0.42076233
00000000: 8f8b 8bbd 9c8f 803d d1aa 323d d953 8d3e
00000010: 1a56 89bc 5571 d43b 86b7 d1bc 26f5 5f3e
00000020: ac39 2b3e 9f28 f13d a578 8e3e d0d7 30be
00000030: 803a 1dbe 092b 31be b149 5c3e 41a7 d1bd
00000040: 81e2 1fbe 09e8 e4bc 4562 b93d f4d4 91bc
00000050: 465a 6d3e 6568 74bd e770 ca3d 8866 203e
00000060: 856d 76be 6385 8c3d eb04 40bd 4638 40be
00000070: 631c 183e 0e8f 1d3e 7979 9e3d b29e ebbd
00000080: 076f 73be d5fb a23e 2b0f 1f3e 7eb5 82bd
00000090: e9dc 283d 8fde 0dbe cdcd a63c da2d 023e
000000a0: b851 b03d b3a6 5dbe bb67 8fbd 3ba1 183e
000000b0: 3fbc a8bd 1e31 6b3e a3e1 9c3e 9a96 b93e
000000c0: 54d9 7b3e f7f4 113d 0007 ee3b 86bc 3fbe
000000d0: 604a c93c eddb b73d 903e 5d3e 3e37 9cbd
000000e0: 2b23 9dbe 1e57 763e 5d6b 823e 6f22 e33c
000000f0: b1c0 d4bd e4ec 123e 52ad 87be 8515 01be
00000100: f2f9 8d3d e33d 8f3b 2c4d 6abd 7e20 1d3e
00000110: 502a d43c 74a0 0fbe 058f 8ebe 371c 413e
00000120: 0d17 53be a305 0bbe 0fc5 96be 8be8 413e
00000130: d3d5 6bbe 9547 c23d 0233 f33a 5122 623e
00000140: 33bf 30be 228c 83bd 6f62 47be 1bc9 13be
00000150: 6ec0 4f3e 9018 833e 92d9 44be e734 e6bd
00000160: ef2b 883e 7ea6 8abe 9497 3dbe dc10 0f3e
00000170: 9f41 50bb f612 2e3e 5ab6 073d 36b2 d7bd
00000180: 2f85 313e ac78 5e3e 0086 9a3d 3686 4dbd
00000190: fe0a 02be 1267 403e b567 39be 389b 20bc
000001a0: e644 9e3d a037 ccbd 5377 983d 5791 233d
000001b0: ffb6 833d 1ff0 173d 60a8 11be 2f4d a03e
000001c0: 7c2c 64be 13b5 8cbe 8538 85be d59e c53d
000001d0: 25f9 253e 5704 d73c de20 253e cf6e 7f3e
000001e0: 22e6 2a3e 7f17 9c3d b2d5 eb3c 355f 5fbd
000001f0: 1d28 4f3d 2678 29be de83 23be 4fb2 fe3d
00000200: f7aa 3eba 24a1 6f3d 993c a6bc 204d f23d
00000210: a2f4 9ebd 9d0d 9b3c 5e62 dd3b f2fa 6b3e
00000220: d95a 293e 0ff9 9d3d 43b4 a83e 14dc d0be
00000230: 2d45 12be b181 89be b7c4 8b3d 8a2d f73b
00000240: 6895 a6be 4d3d 44bc 38af de3d 6eaf a83d
00000250: fcf5 db3c 321e d03c 1629 073e fe2f e83d
00000260: e5b2 19be 472f b1bd 6177 f2bc ad7d 64be
00000270: 1b20 e73d 8e3a 3b3e 7353 9a3a 37f9 29be
00000280: d1a1 dc3d aa65 d03d 8c5b 1e3e 6c90 27bc
00000290: 44c8 e73d 8636 6ebe 4f67 413d 8a42 9fbd
000002a0: 29b0 fc3d 0043 7cbe ca11 82be e9ee 973e
000002b0: 1c46 19be 41ff 9c3e 1ac7 123d 4467 803e
000002c0: f0ca 793e 2244 753d b7c8 183d 1012 6dbe
000002d0: c49b bebd 7e53 22be 8d7e 5c3e 361a 33be
000002e0: 66ab 91be 561d 073e e9bb 833e e661 3a3e
000002f0: 32b8 91be 10e8 4a3d f1c2 82be 430f 76bb
00000300: 3cdb 853e 2da8 463e d9f0 123d 7e45 e0bc
00000310: 5f3d 283e 467f 91be 9b04 3dbe 1a89 5b3e
00000320: 2a84 25be e1ae 43bd a0de 1cbc 7610 9b3e
00000330: 34fc 76be 9494 b03c 3dcd dcbc 7108 613d
00000340: bd69 0abe 0e67 993d f64a 35be f61c 8d3c
00000350: 5637 ca3e 5320 d33c 39fa 5bbe 169b b33d
00000360: e986 b03e b133 a5bd 23ec 92be e94a 2cbe
00000370: 6c0c d73d 2a8d 9b3e 5260 a83d 31a9 12bd
00000380: fd98 6d3e f623 353e 0c1e 08be 7cc8 91bc
00000390: 9941 41be 5976 72bc 1f62 4fbc a168 9ebd
000003a0: f117 823d 7727 12be 10fe 773e 362f 153d
000003b0: cb06 123e 2018 d43d 16be 10be b7ee 213e
000003c0: 28ae e9bd 27f9 c5bb f30a 24be 15ea d83d
000003d0: 3604 8e3e 3b45 7cbd 926a 203e c053 003e
000003e0: ff81 af3d 1a30 823e b756 353c 5f90 d13d
000003f0: 6e68 7abd aadf e13d 10ce 92be 296e d73e
