Assets/ResultWithBlinky/PacmanMlAgent-143748.onnx (onnx, 377078 bytes, 6 tensors)

action_model._discrete_distribution.branches.0.bias f4 [5]
000000 5f 79 3d 3b ff cd 4c bc e7 3d ad 3b 00 74 94 3b
       0.0028911454 -0.012500285 0.0052869204 0.00453043
000010 01 f1 9c ba
       -0.001197368

action_model._discrete_distribution.branches.0.weight f4 [5, 128]
000000 0a cb aa bc 0a 14 50 bb 20 e8 da 3d 13 36 20 be
       -0.02084877 -0.0031750225 0.106888056 -0.15645628
000010 39 ec 8e 3c d2 fa 8d 3d 23 3f 42 3b c3 d1 49 3d
       0.017446624 0.06932606 0.0029639683 0.04927231
000020 85 0f 14 3e 30 95 06 bc c3 f5 03 3b ba b5 23 3e
       0.14459045 -0.00821428 0.00201355 0.15987292
000030 e8 6b 05 3e 97 d2 37 3e ed 6a 23 3c 2a 63 1e 3b
       0.13029444 0.17951427 0.009974224 0.0024167993
000040 3e de ea bd 9a 6e 6d bc 81 fb 0b ba 4c 77 2c 3e
       -0.114681706 -0.0144917015 -0.0005339906 0.16842383
000050 fa 7e fd 3a 9b 04 bd 3c 0a 5d ae 3a 29 60 af ba
       0.001934021 0.023073485 0.0013302874 -0.0013380098
000060 b1 e6 be 3b da e5 e0 3b cf 3e 01 3c ea 7b b0 bd
       0.0058258404 0.006863338 0.00788851 -0.08617385
000070 e0 97 4c be dd 93 f9 3d d2 b8 e8 bd 63 e8 a3 3b
       -0.1997981 0.12186406 -0.11363377 0.005002068
000080 49 3b 85 3b aa 8b 37 3c fe 75 22 3b 8e fb 36 3c
       0.004065905 0.011202732 0.0024789567 0.011168374
000090 8d 64 09 be dd b4 96 bc 78 bb 8e bd d9 34 73 bb
       -0.13417263 -0.01839679 -0.069693506 -0.0037110357
0000a0 53 f1 32 be f7 13 f8 bd e4 8b 57 3c eb 13 55 bc
       -0.1747487 -0.12113183 0.013155911 -0.013005237
0000b0 ae 2b d4 3a 12 6e e8 3b 61 ba 2b bc 75 d5 28 3c
       0.0016187334 0.0070931995 -0.010481448 0.010304798
0000c0 66 28 3e bb 31 8a 07 3c fe 76 85 bc a2 e2 d2 3b
       -0.0029015779 0.0082726935 -0.016292091 0.006435708
0000d0 83 71 08 be 5a 38 0d 3c a7 aa ad bd 7d bb 10 bb
       -0.13324551 0.008619392 -0.08479815 -0.0022084408
0000e0 fb 4e 9f bb fb 92 12 3d e9 8a d5 bb 27 fd 83 3b
       -0.00486171 0.035784703 -0.0065168035 0.004027981
0000f0 f8 db 99 3b 68 9c fb 3d 07 9b f4 3b 15 d7 a2 bb
       0.004695412 0.122856915 0.0074647698 -0.0049694874
000100 ff 63 ab bb a2 5e 5c 3d 70 c0 76 bb d8 ec af 3a
       -0.0052304263 0.053801186 -0.0037651323 0.0013422025
000110 d3 8f 25 3e 1b 12 83 bb 59 9a 35 3e 36 aa a4 3a
       0.16168146 -0.003999961 0.1773466 0.0012562934
000120 0f 6d 58 bc ab 78 39 3c f2 b9 91 3b 67 fe c8 b9
       -0.013209595 0.011320273 0.0044472152 -0.00038336517
000130 4b 57 36 3b a8 7f 79 ba 7c 04 3f b9 74 c5 38 3c
       0.0027823027 -0.00095176185 -0.0001821685 0.011277545
000140 6f 06 cd bd cc 45 46 3c 2a b7 91 bb 09 cf 27 bb
       -0.10010993 0.012101602 -0.0044468837 -0.002560558
000150 14 9a f3 bb ca 5d 16 3e 08 75 fc 3d 3c 00 c0 3b
       -0.007434139 0.14684215 0.123270094 0.005859403
000160 73 41 1e bb 90 6f a3 39 60 51 5f 3a e7 dc fb 3a
       -0.0024147897 0.00031172903 0.0008518901 0.0019215614
000170 a9 6f 19 3c c3 11 09 3c ac ec b4 bb f2 62 29 bc
       0.009365001 0.008366051 -0.0055213775 -0.010338532
000180 97 99 b1 3d b9 b8 35 bc 26 cd d4 3a cb f8 6a 3b
       0.08671873 -0.011091405 0.0016235455 0.0035853859
000190 8e bd a4 bc 2e e4 94 3c 06 0e 1e 3c d0 4d 21 3d
       -0.020109918 0.01817521 0.009646898 0.03938085
0001a0 85 4d 3a bc d4 f2 50 3b 49 3d f6 3c b9 45 04 3e
       -0.011371021 0.0031883018 0.03005852 0.12917222
0001b0 ac 76 01 3e 2c 74 e0 3b 46 66 15 bc f3 2e 1b bc
       0.12642926 0.0068497863 -0.009118622 -0.009471643
0001c0 32 cd aa 3b 84 15 ff bb 3b d8 37 bb 8c ef 0f 3e
       0.0052124495 -0.0077845473 -0.0028052467 0.14056224
0001d0 6e 24 02 be 5f a1 d8 3d 1f ca 94 3a 68 20 ee 3a
       -0.1270921 0.10577654 0.0011351741 0.0018167617
0001e0 42 67 1e be d7 1c 9a 3b 67 c0 32 bc 4a 6c 53 bc
       -0.15469077 0.004703145 -0.01091013 -0.012904236
0001f0 80 a1 29 bc 29 1c 37 3e c8 7d a5 3b 22 57 00 bc
       -0.010353446 0.17881836 0.0050503947 -0.007833274
000200 cd ff 98 bc 0a 82 70 bc ff 78 bf bd 3f 2c 37 3e
       -0.018676663 -0.014679441 -0.0934925 0.17887972
000210 c3 3d 72 3b 1f 04 e6 bd 82 d9 37 ba ec 17 78 bd
       0.0036963082 -0.11231255 -0.0007013307 -0.06056969
000220 c9 07 04 be 4f 97 fa bb 78 bc 34 bc e2 ab 13 be
       -0.12893595 -0.007647432 -0.011031263 -0.14421037
000230 ad 96 ca bd 54 cc 03 be 75 e9 38 bb 48 ca 1b 3a
       -0.098920204 -0.12870914 -0.0028215323 0.0005942923
000240 a6 fd 04 3e 0d f2 f2 3d 90 60 82 3b a3 b2 29 bd
       0.12987384 0.11862574 0.0039787963 -0.041430127
000250 bb 17 6b 3b bf 1c 39 3d 59 35 72 3b 3c 95 54 ba
       0.0035872299 0.04519343 0.0036958067 -0.0008109396
000260 ad 2a 10 3b 9d 7b ca bb 9d 82 af bb 5f 58 e7 3d
       0.0021998093 -0.0061792866 -0.0053561465 0.11296152
000270 bb 6d 3d 3e b4 eb fd bd 99 52 1f 3e 80 4c b9 3b
       0.1849889 -0.123984724 0.15558852 0.0056548715
000280 91 75 80 ba 26 db 32 3c 3d 4e 8e b9 98 70 88 bb
       -0.0009800663 0.010916507 -0.00027142643 -0.004163813
000290 65 6c 21 3e 3b ed 78 bc 80 19 03 3e e5 08 d5 bb
       0.15764005 -0.015193279 0.12802696 -0.0065013045
0002a0 c8 71 3b 3e f0 d4 0c 3e 51 57 af 3b 4f 79 b2 bb
       0.18305123 0.13753104 0.005350985 -0.00544659
0002b0 96 eb 2c bc 9b a2 f3 38 c3 df 9c 3b 8c ba 48 bb
       -0.010554215 0.000116174306 0.0047874167 -0.0030628769
0002c0 91 e2 56 3b 7d 93 8b 3b 5d 03 8a 3d 7d e5 d5 bb
       0.0032788853 0.0042595253 0.06738923 -0.0065276013
0002d0 9f 13 20 3e 81 f0 e6 3b fb 25 11 3e c2 f8 b7 bc
       0.15632485 0.0070477133 0.14174645 -0.022457484
0002e0 85 93 01 bc 7e 36 dd bd ac 9e 11 bd 43 a3 14 3c
       -0.007908707 -0.10801409 -0.035551712 0.009072128
0002f0 cb da fa 3b ff 0e 1b be 53 e3 1c bb 47 4a 53 3c
       0.0076554767 -0.1514244 -0.0023939207 0.012896127
000300 2e be 8d bb fa ab a9 bc 7b 7f 0f 3a 3a 29 86 3b
       -0.0043256497 -0.020711888 0.0005474013 0.00409427
000310 3c 35 fb bd 50 f9 26 bb 24 6d 0e be c9 15 8e ba
       -0.12266013 -0.0025478192 -0.13908821 -0.0010840233
000320 b3 65 df 3a 77 ba 87 bb 0d b9 d9 3a d3 ba 15 bc
       0.0017043859 -0.0041421014 0.0016610936 -0.009138781
000330 e7 36 04 bc 45 ec 8d 3a e8 cb 81 bc b4 95 3b 39
       -0.00806973 0.001082786 -0.0158443 0.00017889478
000340 0e f6 29 3e 6e 5e ca ba a9 fa dc bb 96 7e e6 3a
       0.16597769 -0.0015439519 -0.006743748 0.0017585333
000350 34 86 66 bb a2 ab 05 be 1a 1f 07 be 28 75 38 3b
       -0.0035175206 -0.13053754 -0.13195458 0.0028146002
000360 0b 3d 15 3b 78 aa 43 bb 6b c3 29 bb 30 fa dc bb
       0.002277198 -0.0029856246 -0.0025903832 -0.006743692
000370 7f a8 22 bc 87 a3 ec b7 e5 2a 1e 3b 0f 06 18 bc
       -0.009927868 -2.820954e-05 0.0024134454 -0.009278788
000380 92 28 42 bd 9a 41 07 bc 17 12 17 3d a8 46 cf bc
       -0.047401972 -0.008255387 0.036882486 -0.025302246
000390 65 79 53 3b ee c6 9b bb 65 cd c4 bb db b7 89 3d
       0.0032268402 -0.004753939 -0.0060059302 0.06724521
0003a0 62 8e 25 bc 4c 82 e3 3c 8c 2a 1b 3c ea 5e 23 be
       -0.0101047475 0.027772091 0.009470593 -0.15954176
0003b0 68 54 e9 bd 2b 3b 4d 3c 87 69 90 bb 98 ec b7 3b
       -0.11393052 0.012526314 -0.004407111 0.005612921
0003c0 3f 99 bc 3b 93 e7 d7 3b fc 71 1a 3c fd 63 0b be
       0.005755573 0.006588885 0.00942659 -0.13612361
0003d0 11 00 24 3e 68 c8 bd bd 5a 8e 22 bc f4 06 58 3c
       0.1601565 -0.0926674 -0.009921635 0.0131852515
0003e0 f1 ef 2b 3e ed 43 e5 3b 7e 5f 36 3b a0 60 3d 3a
       0.16790749 0.006996623 0.0027827914 0.0007224176
0003f0 52 76 15 bc 01 7a c2 bd 84 38 99 3b 61 c6 12 3c
       -0.009122448 -0.09495927 0.0046759266 0.00895843

network_body.linear_encoder.seq_layers.0.bias f4 [128]
000000 1e bb 58 bd 49 65 2f 3e 34 97 7b ba 63 97 24 be
       -0.052912824 0.17128481 -0.0009597421 -0.16073374
000010 23 de 27 3e 9f d9 93 bd 0e 45 11 be d8 7b 09 bd
       0.16393332 -0.07219242 -0.14186499 -0.033565372
000020 07 81 16 be 97 ad 21 be a6 02 25 be 64 2c 26 3e
       -0.14697658 -0.15788876 -0.16114292 0.16227871
000030 49 cf 1b b6 a9 79 2b be a1 b5 10 be cd 15 a7 ba
       -2.3217456e-06 -0.16745628 -0.14131786 -0.0012747586
000040 51 f5 1e be ea 21 2c 3e b5 d1 87 bd b3 db 25 be
       -0.15523268 0.16809812 -0.06631795 -0.1619709
000050 24 c2 27 3e 70 f1 88 bb 4d 6c 2d 3e 97 e0 28 3e
       0.16382653 -0.004179172 0.16935845 0.16491924
000060 76 95 d8 bc de 7e 28 3e 6b 7f 25 3e ce 18 b3 ba
       -0.026438456 0.16454646 0.16161887 -0.0013664009
000070 11 2c 02 bd fd 0c 9b 3c 55 11 23 be f0 5f 18 bc
       -0.031780306 0.018927092 -0.1592458 -0.009300217
000080 a1 c7 2b 3e c1 eb 1f be cb 87 cd bb 25 e9 30 3e
       0.16775371 -0.15617277 -0.0062722913 0.17276438
000090 8b c9 c9 bd d9 cb ee bc 39 cf b4 bc 4e 7f 26 be
       -0.098528944 -0.029149937 -0.022071468 -0.162595
0000a0 1f 7b 2e 3e d7 77 29 be b1 d4 f7 3b 07 59 bb bd
       0.17039154 -0.16549622 0.0075631966 -0.0914784
0000b0 22 65 21 be d2 d6 1d be a3 4d 04 bb 86 ab 09 be
       -0.15761235 -0.15413979 -0.0020187877 -0.13444337
0000c0 98 f6 3d 3b 20 de 30 be 30 2e 2c be 91 ed 20 be
       0.0028986093 -0.17272234 -0.16814494 -0.15715624
0000d0 a0 5c 1e be 85 52 2b bc ff dd 5d bd fb 6a 23 be
       -0.15465021 -0.010456686 -0.05416679 -0.15958779
0000e0 da d2 1d be 00 bb 25 be d2 05 20 3e fc a5 a4 bc
       -0.15412465 -0.16184616 0.1562722 -0.020098679
0000f0 8f d5 17 bc 86 20 2c bd ff 8a 21 3e f5 2b 0e bd
       -0.009267225 -0.042023204 0.15775679 -0.03470989
000100 78 47 e3 3a 09 dd 31 3e 59 f0 30 3b dd 09 03 bc
       0.0017340025 0.17369474 0.0026998727 -0.007997957
000110 08 0b 28 be fa 5e 28 3e a3 a6 23 be b1 a6 28 3e
       -0.16410458 0.1644248 -0.15981536 0.16469838
000120 03 66 1a bd f2 d9 22 be 00 0a 2a be a9 06 80 bd
       -0.037694942 -0.15903452 -0.16605377 -0.0625127
000130 f2 33 ee bb 20 11 a1 bc dd 47 26 3e c4 42 2d 3e
       -0.007269376 -0.019661486 0.16238351 0.1692
000140 01 c5 e6 bb 59 dc 1e be 11 5f 25 3e 92 14 5a bd
       -0.0070425277 -0.15513743 0.16149546 -0.053242274
000150 db 6b 22 3e fe 3a 32 be 67 83 26 be c3 1e e2 bc
       0.15861456 -0.17405316 -0.16261064 -0.027602559
000160 d8 dc 32 3e 10 5b 6d bc d7 be af bd 5f 9f b7 ba
       0.17467058 -0.014487043 -0.08581322 -0.0014009288
000170 3f fd 8a bb 27 de 2e be af 96 2a 3e ff 7c 21 be
       -0.004241615 -0.17076932 0.16659044 -0.15770338
000180 dd 00 22 be 07 51 c3 bc 79 28 2f 3e a8 89 29 be
       -0.15820642 -0.023842348 0.17105283 -0.16556418
000190 66 ab 41 bb 81 4b 53 bc 49 d7 9b bc ba 7a 21 be
       -0.0029551624 -0.0128964195 -0.019023554 -0.15769473
0001a0 78 1c ba bd 5e 97 2c be ea ca 2a be b4 7c 8f bb
       -0.09087461 -0.16854617 -0.16678968 -0.0043788794
0001b0 01 7f 33 3e 12 2e 2b 3e 81 3a 3a bc 4b 5a 25 bd
       0.17528917 0.16716793 -0.0113664875 -0.040369313
0001c0 2e 01 21 be 4b b1 05 bc d5 11 46 bd cb b1 0e bc
       -0.15723106 -0.008159946 -0.04835685 -0.008709381
0001d0 5f 9b 1e be d0 78 33 bb 06 bc 3a bd 32 f2 20 3e
       -0.15488957 -0.0027385242 -0.04558947 0.1571739
0001e0 cb be 28 3e 45 41 f3 bd dd a7 b4 bd 71 41 27 3e
       0.16479032 -0.118776836 -0.0882108 0.16333558
0001f0 b2 2e 9b 3b d2 3c 29 be 48 ef 17 bd 34 75 40 3c
       0.004735791 -0.16527107 -0.03709343 0.011746693

network_body.linear_encoder.seq_layers.0.weight f4 [128, 597]
000000 0d f1 83 3d 9a 1b b5 bd b5 95 81 bd d6 a3 25 bd
       0.06442461 -0.08843155 -0.063273825 -0.04043945
000010 63 a3 30 bb b2 bc 61 3d 06 00 8e bd 4c 88 c1 bb
       -0.0026952855 0.055111594 -0.06933598 -0.0059061404
000020 29 c9 b0 3a ea d9 3b 3c 66 38 34 3d 44 e9 09 bd
       0.0013487685 0.011465529 0.0439991 -0.033669725
000030 42 81 98 bd 4a 16 4d bc 27 6f 08 3b ea 3b 1a bd
       -0.07446529 -0.012517521 0.0020818205 -0.037654795
000040 93 c5 9b bb 1b 5c 6d bd 0c 65 39 bd 4b eb 80 bb
       -0.0047537773 -0.057949167 -0.04526238 -0.003934299
000050 07 9d bb bc a6 be 5a 3c 4d 25 c8 bc ec 3c 49 3d
       -0.022902025 0.013351118 -0.024431849 0.049130365
000060 19 0d d3 bc 12 88 98 3c 72 79 32 bd 78 95 2e 3d
       -0.025763081 0.01861957 -0.04357285 0.042623013
000070 9f cd 54 bd e2 b5 fd bc 18 fb 3a bd 74 67 5e bd
       -0.051953908 -0.030970518 -0.045649618 -0.05429788
000080 fb 46 17 3d 6e 5f 52 3d 09 79 be bb d0 5a 51 bd
       0.036932927 0.05136054 -0.0058127684 -0.051111996
000090 ff b5 25 3d 20 ff 1a 3d 7e 00 1c bd 59 64 6b 3c
       0.040456768 0.037840962 -0.038086407 0.014367186
0000a0 ad a8 ae 3d 18 01 dd 3c ee 9a c2 3a cd d8 b9 bc
       0.08528266 0.02697806 0.0014847198 -0.022686386
0000b0 28 cd 14 3d c6 20 53 bc 6a 1f c2 bd 8f 60 21 bd
       0.036328465 -0.012886232 -0.09478648 -0.039398726
0000c0 89 76 4f 3d a0 29 b4 bd 91 31 00 bd 21 c0 22 3d
       0.050650153 -0.08797002 -0.03129727 0.03973401
0000d0 6f 30 24 bd bc c4 ab bd b6 05 e0 3c 25 6a 43 3c
       -0.040085252 -0.083871335 0.027346473 0.011927162
0000e0 d9 0f 90 3c 70 69 33 3d 0f bf 51 bb 51 4d 2d 3d
       0.017585682 0.043801725 -0.003200475 0.042310063
0000f0 24 5e 5a bd 23 e1 25 bd cd 58 85 bd 92 a5 7d bb
       -0.053312436 -0.04049791 -0.06511078 -0.0038703424
000100 6b ec d8 bc b6 40 80 bd 1e 21 09 3d 45 34 4c 3d
       -0.02647992 -0.06262343 0.03347885 0.049854536
000110 04 72 a5 3d c1 f5 83 3d 30 5b 55 3c b4 4b 35 bd
       0.080783874 0.06443358 0.013022229 -0.04426165
000120 41 a3 fc bc e2 c7 29 bd 94 b3 1f bd 1b 19 1b 3d
       -0.030839564 -0.04145039 -0.03898962 0.03786574
000130 cc 4b ba bb 0e cd ee bb 3c 62 78 3c 19 01 87 bd
       -0.005685305 -0.007287628 0.01516014 -0.06592006
000140 c4 12 96 bc e2 9e ac 3b 86 89 b2 bb f2 19 cd 3c
       -0.018319495 0.0052679637 -0.005448523 0.025036786
000150 c7 65 c8 bc 30 8c 5e 3d c9 ff bb bb 56 0e 7b bd
       -0.024462594 0.054332912 -0.005737279 -0.06129297
000160 f4 1f db bc 0c 0b a4 bc 5e c6 5a 3c d4 e7 9d bd
       -0.026748635 -0.020024799 0.0133529585 -0.07710233
000170 09 0a 21 3d 64 55 6c bd 43 83 f8 bb e7 4b b5 bd
       0.03931621 -0.057698622 -0.007584007 -0.08852368
000180 59 f0 f8 bc 34 56 e8 bd 1b 41 e6 bc e1 c5 2b 3d
       -0.030388044 -0.11344567 -0.028107217 0.04193676
000190 29 41 07 bc 9f 14 dc 3c bd fb fd ba a8 12 ef bd
       -0.0082552815 0.026865302 -0.0019377392 -0.1167348
0001a0 b9 e4 dd bc d4 83 56 bd 50 de 4e 3d 6b a0 43 3c
       -0.027086603 -0.052371815 0.050504982 0.011940102
0001b0 8d 43 49 3d 53 9d c2 3c f9 36 b9 bc 96 39 38 3d
       0.049136687 0.023756659 -0.02260922 0.044976793
0001c0 6d 66 82 bd e8 f6 d9 3c e6 dd 48 3d e9 f3 9d 3c
       -0.063671924 0.026606992 0.049039744 0.019281344
0001d0 5b 87 be bc 29 2e 12 bd aa 1d e9 bc 14 3c ca bd
       -0.023257902 -0.035688553 -0.028456528 -0.0987474
0001e0 53 23 42 bb d4 9a e2 bc 26 7e a3 bc a7 63 aa bc
       -0.0029623106 -0.027661718 -0.019957613 -0.020799471
0001f0 da ac 59 bd 74 ca 75 3d 1c 70 80 3d 4d a6 22 3c
       -0.05314336 0.060007527 0.06271383 0.0099273445
000200 67 eb 1c bc d6 51 27 bd 2f 8d f8 3c b5 8d f7 bd
       -0.009577609 -0.04084953 0.03034076 -0.12087575
000210 ba 01 bb bd ea 3a e5 3c e9 20 a7 3c 9d 52 02 3d
       -0.09131189 0.027982194 0.020401435 0.031817067
000220 85 45 61 bd 1d f8 0a 3c e0 01 48 bd 2b 2e ab 3d
       -0.05499794 0.008482006 -0.048829913 0.08358415
000230 bc 77 73 3c 8f 0a 27 3d 4a aa 89 3c fa e9 2a bd
       0.01486009 0.040781554 0.016804833 -0.041727044
000240 66 59 16 bc a9 22 df 3c 3a 7a 19 bd 88 e4 b5 3b
       -0.009176588 0.027238207 -0.03747008 0.0055509247
000250 eb cc 81 bc 67 c9 64 bd 89 9c 1c 3d 85 1e f0 bc
       -0.015844783 -0.055856135 0.03823522 -0.029311428
000260 4b 38 a6 bd 8e 62 92 bc ff ca 92 3c 2b 78 0a bd
       -0.08116206 -0.01786926 0.017919062 -0.033806007
000270 6c b8 59 3d e6 26 51 bc e5 9d 32 3d 06 a9 a6 3b
       0.053154394 -0.012765622 0.04360761 0.005086067
000280 1c 1c 6f bd 79 37 25 bd 1a c5 f7 3c 46 8f c2 bd
       -0.058376417 -0.040336106 0.030245353 -0.094999835
000290 6a df 0a bd a9 c6 40 3b 0c 0c 7c bc 45 28 d1 3c
       -0.03390447 0.0029415286 -0.015383732 0.025531897
0002a0 e1 8a 56 bc 9f a8 a4 bc d8 90 a8 3d 87 64 1b bc
       -0.013094635 -0.020099936 0.08230752 -0.009484417
0002b0 bc 40 24 bd 28 fc 3f 3d b1 45 01 3d 9b 5c c8 3c
       -0.040100798 0.046871334 0.031560604 0.02445822
0002c0 ff 5c 80 bd 9b 97 b6 3d a6 f2 66 3c a0 07 fd 3c
       -0.062677376 0.08915635 0.014095938 0.030887425
0002d0 9e 2b fe 3c e5 32 97 bd fd d0 83 bc 50 f6 c4 b9
       0.031026658 -0.07382754 -0.016090864 -0.0003756755
0002e0 ac ef 13 3d 08 9c 9e bc 8c 18 83 3c f1 3f 2d bd
       0.03611724 -0.01936151 0.016002916 -0.042297307
0002f0 57 7e 30 3d 82 c8 f1 bc e5 4f 33 bc 5d 47 f7 bc
       0.043089237 -0.029514555 -0.010944341 -0.030185396
000300 77 c6 8f bb f2 e2 35 bd ba db 6f bd 43 0b 19 3c
       -0.0043876725 -0.044405885 -0.058559157 0.009341064
000310 8f 57 09 bc e4 6f 21 3d b8 4d b0 bc f6 85 28 3c
       -0.008382692 0.039413348 -0.021521434 0.010285845
000320 e2 86 10 bd 27 33 ce bb 41 c7 96 bc 34 64 4a 3d
       -0.035284884 -0.006292719 -0.018405559 0.049411967
000330 da 36 82 bd 17 de 2a bb c9 02 59 3d 30 b8 0e 3d
       -0.06358118 -0.0026072317 0.05298117 0.034843624
000340 50 fe b6 bd ac 45 7a 3c 73 d6 0c 3d 60 89 10 bd
       -0.08935225 0.0152754 0.034384202 -0.03528726
000350 49 d0 40 bd 3f 4d 61 3d 20 ac e2 bc 5d ab e4 3b
       -0.047073636 0.05500531 -0.027669966 0.006978436
000360 f2 67 10 3c d9 93 89 3b 49 a2 80 3c 30 4f 5b bd
       0.008813845 0.004198533 0.015702384 -0.053542316
000370 de a6 c8 ba 2c 6b c6 3c fe 7a 4b bd c8 4d ff bc
       -0.0015308519 0.024221025 -0.04967784 -0.031165019
000380 a8 ab e2 bd 6c 79 a2 bb c0 c9 03 3c e7 b5 06 3c
       -0.11067897 -0.0049583223 0.008043706 0.00822208
000390 fb 29 24 bd 86 0c 8c 3d a8 02 10 3d 81 9e 43 3c
       -0.0400791 0.06838326 0.035158783 0.011939646
0003a0 d1 86 5f bd 08 b0 a1 3b d3 01 4a bc 0c 2d 10 3d
       -0.05457193 0.0049343146 -0.0123295365 0.03519921
0003b0 7e bc cd 3c db 47 f5 bb 9a 63 80 bc 3c 2d 15 bc
       0.025114294 -0.0074853725 -0.015672494 -0.009105023
0003c0 e5 e4 a7 3c 08 e3 b7 3d 81 89 93 3a cc d1 b5 3d
       0.020494888 0.0897885 0.0011256189 0.08877906
0003d0 c4 52 5f 3c a1 c4 0e 3b 65 ce 7f bd 31 6e 3e 3b
       0.013630573 0.002178468 -0.062452693 0.0029057378
0003e0 d4 52 60 bd bc c1 ea bb 95 6b ae bc de 43 57 3c
       -0.05476649 -0.007164208 -0.021291533 0.013138739
0003f0 25 92 c4 bc e7 da 4e 3d ff 4b ab bc d1 91 8b 3d
       -0.023995468 0.05050173 -0.020910261 0.06814922

network_body.linear_encoder.seq_layers.2.bias f4 [128]
000000 b3 ec ae bb f4 7f 0c bc 3e 3f cd bd 88 79 15 3e
       -0.0053382753 -0.008575428 -0.10021828 0.14597142
000010 fc ad e9 bc 20 85 09 be 4d 3c be 3a e5 74 c5 bd
       -0.028525345 -0.1342969 0.0014513821 -0.096414365
000020 22 46 f7 bd 9d 86 46 bc e9 07 93 bb 1c 4c e9 bd
       -0.12073924 -0.012117055 -0.004487027 -0.1139147
000030 b0 59 cf bd 7a 87 01 be c8 31 5a bd df 23 14 bd
       -0.101245284 -0.12649336 -0.05327013 -0.03616702
000040 b9 9e e2 3d 7f c8 be 3d 42 2d 2c bc fa 5b d4 bd
       0.1106543 0.09315585 -0.010508837 -0.10369106
000050 25 d8 a4 bc e3 41 b7 bc a4 1f 06 bc d6 6a a4 bc
       -0.020122597 -0.022370284 -0.008186255 -0.020070475
000060 0f 99 fc bc c7 73 20 bc d4 b0 7a 3b be 98 d4 3d
       -0.030834703 -0.0097932285 0.003825237 0.10380696
000070 24 0a 22 3e 8e b4 da bd c7 6c fc 3d 85 50 2b bc
       0.15824181 -0.10678969 0.12325435 -0.010456209
000080 91 4f 4d bc d1 03 37 bc e7 d1 0c bc 3b 3d d4 bb
       -0.012531177 -0.0111703435 -0.0085949665 -0.006477026
000090 43 2d 08 3e e2 21 4e bb 1b b7 d4 3d 49 6b c6 bb
       0.13298516 -0.0031453301 0.10386487 -0.00605527
0000a0 b3 74 1a 3e 96 be 05 3e 25 c2 66 bb d4 40 13 bc
       0.1508358 0.13060984 -0.0035210934 -0.008987624
0000b0 c7 ea ce bc a0 fb a7 bb c9 4b c9 bb fc af 58 bb
       -0.025258435 -0.0051264316 -0.0061430675 -0.003306388
0000c0 b5 c8 3e bc d2 00 40 bc d3 f5 17 3d 56 02 cc b9
       -0.011644532 -0.011718946 0.03709967 -0.00038911653
0000d0 19 49 ef 3d 8b 71 54 bc 4d ba dd 3d 53 14 b9 bd
       0.11683864 -0.012966524 0.1082655 -0.0903708
0000e0 6e f5 da bc fe b5 ec bd b8 e2 ab bd 7d 21 76 bc
       -0.026728358 -0.1155815 -0.083928525 -0.015022633
0000f0 4c d2 a5 bc 16 d4 e9 bd 09 06 0a bc 00 48 88 bc
       -0.020241879 -0.11417405 -0.00842429 -0.016635895
000100 9c b2 1d bc c5 d2 ac bd e0 94 fc bb be 37 e6 bc
       -0.009625103 -0.084386386 -0.007708177 -0.028102752
000110 af 89 fd bd 1b f0 24 bc 8c 06 ff bd c7 93 dd bc
       -0.12379777 -0.010067011 -0.124524206 -0.027048005
000120 c5 2c 25 bc 37 d9 1e bc 87 3e 81 bc 54 98 c3 39
       -0.010081475 -0.009695343 -0.015776886 0.00037306792
000130 80 11 a1 bb eb 53 8f b9 f5 e8 08 bc fc a5 1d bd
       -0.0049154162 -0.0002733761 -0.008356323 -0.038488373
000140 09 7f 01 3e f6 cc b0 bb 6c c6 2b bc 00 0d 92 ba
       0.12646116 -0.005395527 -0.010484319 -0.001114279
000150 09 8d 8c bc 5b f8 ed bd bc a9 00 be d9 c9 94 bb
       -0.017157095 -0.11619636 -0.12564749 -0.0045406637
000160 d2 41 c3 bb 43 55 7e bc ac 8f 6e 3a bd cb dc bc
       -0.005958774 -0.015523258 0.0009100388 -0.026952619
000170 a3 12 05 3a 25 36 e8 3a b3 31 51 bd 85 e7 27 bc
       0.00050763245 0.0017716332 -0.051072787 -0.01024807
000180 2a 22 c5 bd c6 8b 03 bb 9e 49 8f 3c 1d bb 1a 3c
       -0.09625657 -0.0020072325 0.017491158 0.009444025
000190 2f 4d ba bb b2 d5 39 ba 03 e7 f1 bb 0d cf 55 3c
       -0.0056854705 -0.0007089033 -0.007382275 0.013049853
0001a0 3b 71 da 39 48 9f 17 3b d0 4f 16 bd 94 ab e2 bd
       0.00041664563 0.002313571 -0.03669721 -0.11067882
0001b0 52 45 05 be 18 3d aa bc a6 12 81 bb 33 0f 80 bc
       -0.13014725 -0.020781085 -0.0039389906 -0.015632248
0001c0 c9 7b 72 bc 35 d2 04 bc 88 68 56 bc da 42 dc bd
       -0.0148000205 -0.008106758 -0.013086446 -0.107549384
0001d0 e4 b5 f1 3d 19 fd 03 be b6 97 5d bc f4 66 02 bc
       0.11802271 -0.12889518 -0.01352494 -0.007959116
0001e0 10 78 10 3e 8c 57 80 bb 29 c3 64 bc 7b 13 3e 3c
       0.141083 -0.0039166864 -0.013962545 0.011601324
0001f0 b6 a6 83 ba dc f0 fd bd db 3e 49 bc 76 10 1b bc
       -0.001004419 -0.12399456 -0.012283052 -0.009464374

network_body.linear_encoder.seq_layers.2.weight f4 [128, 128]
000000 ad 89 86 3b 11 b1 2c bd 5e 22 5f bd 03 31 50 3c
       0.0041057677 -0.04216105 -0.054476134 0.012706998
000010 28 88 0b be d0 11 3b 3d 29 33 68 bb ab 39 bc 3d
       -0.13626158 0.045671284 -0.0035430884 0.09190687
000020 41 e3 46 3e 09 66 29 bd f4 9f f0 bc 33 94 c1 bd
       0.19422628 -0.041357074 -0.029373147 -0.09452095
000030 8e 93 62 bd 23 8b bd 3e 86 4b 69 3d e2 bf 19 3c
       -0.0553165 0.37020215 0.05695679 0.009384127
000040 2c ac f1 3d 94 b6 0f be 72 8d 09 3d f5 4a 93 3d
       0.11800417 -0.14034492 0.03358216 0.07192031
000050 1c 47 a9 bd aa e2 a4 bd a7 fd 04 be 17 f1 88 bd
       -0.08265516 -0.08051045 -0.12987386 -0.06686609
000060 43 3f 98 bd 5f ec ca bd 93 36 d3 bc ae 13 e0 3b
       -0.07433941 -0.099083655 -0.025782859 0.0068382835
000070 08 d4 17 3d 2d f6 d8 3d 76 a3 f2 bd f6 45 3b 3d
       0.037067443 0.10593829 -0.11847584 0.045721017
000080 fb 5f a5 bd 21 3f 47 3e 8c 43 b0 3d 1a 7c 18 be
       -0.080749474 0.19457676 0.086066335 -0.14891091
000090 74 4b 04 3d d2 a0 28 bd d5 64 47 3d 7e a3 60 3e
       0.03229852 -0.041168995 0.048680145 0.21937367
0000a0 2a 08 27 bd 37 af 00 3e ea 40 bf 3d 53 94 99 3d
       -0.04077927 0.12566839 0.09338553 0.07498994
0000b0 f1 c8 0c 3e 47 09 0e 3e d0 45 9c 3d 92 fe 8c bd
       0.13748528 0.13870727 0.07630503 -0.06884493
0000c0 c2 e9 fa 3b 57 f7 c5 3d 6c 88 32 3e 1e e7 58 3e
       0.0076572606 0.09666317 0.17434853 0.21181914
0000d0 10 40 10 3d c9 6b c5 bd 15 94 ca bd 34 61 93 3e
       0.035217345 -0.09639699 -0.09891526 0.28785098
0000e0 3a 21 36 3e cb ad 27 3e 0e 6f 17 be b7 43 d3 bd
       0.17786112 0.1637489 -0.14788458 -0.1031565
0000f0 3b 3c 8d 3c 29 6e b8 3d f8 d2 83 bc e4 2d ad 3b
       0.017240634 0.090053864 -0.016091809 0.0052850116
000100 f9 eb d5 3d b5 e8 4f be c6 09 f4 bd 83 a8 a4 3d
       0.10445399 -0.20303614 -0.11915927 0.080399536
000110 bd a8 07 3e 3d 86 23 3d dd 39 87 3e d9 90 28 bd
       0.13247962 0.03992294 0.26411334 -0.041153762
000120 04 d6 0a bd 32 3f 0e 3c 59 62 2e 3e 4f 0c 0d 3e
       -0.033895507 0.008682059 0.17029704 0.13774227
000130 84 d6 e1 bd 9b 7b 0e 3a 7d 48 4a be 39 ce 7c 3d
       -0.11027244 0.0005435289 -0.19754215 0.061720107
000140 31 63 59 3e 8f 4e 99 3c 4c ee d8 bc a6 ca cc bd
       0.21229245 0.018714217 -0.026480816 -0.099995896
000150 b9 5d 09 3d 2a dd d7 3d 5a e2 a7 3d a5 13 b0 bc
       0.033536647 0.105402306 0.0819747 -0.021493742
000160 94 1e b4 bd 46 79 18 bb 51 47 6b be 7b 5f 81 bd
       -0.08794895 -0.0023265644 -0.22976424 -0.063170396
000170 77 ca 22 3e 6c 75 bc 3d 44 02 02 be 8f 44 38 3e
       0.15897547 0.09202084 -0.12696177 0.17994903
000180 a7 b0 97 3c 1c 0b 59 be f3 52 5b bd 48 97 5b 3d
       0.018516852 -0.21195644 -0.053545903 0.05361107
000190 7d 26 80 bc ad 5a 3d bd a3 06 0d bd ec e1 21 3e
       -0.015643353 -0.046229053 -0.034430157 0.15808839
0001a0 ef 61 51 b8 81 98 8b 3d 74 b9 bb 3d 59 57 94 bc
       -4.992069e-05 0.06816197 0.09166232 -0.018108057
0001b0 6a 73 40 be fd 1e 16 3b 48 99 bd 3d 0b 62 0c 3d
       -0.18794027 0.0022906654 0.09257752 0.03427319
0001c0 04 38 62 3e 0a db 01 bc f3 ca de bc 93 7d 0f 3c
       0.22091681 -0.007925758 -0.027196383 0.008757967
0001d0 ce 8a 96 3e 07 39 0a 3e 15 e1 31 bc 1f ec 2f bd
       0.29402775 0.13498317 -0.010856886 -0.042949792
0001e0 aa 08 0d be 55 86 16 bd 7e ab 31 3e 93 a7 18 3b
       -0.13772836 -0.036749203 0.17350575 0.0023293241
0001f0 8b ec 0d bd 26 9b d3 bd 5b cf fe 3d 9b 58 29 3a
       -0.034649413 -0.103323266 0.12441894 0.00064600416
000200 f4 1e 12 be 2d a0 4f be 91 c6 e3 bd 2d a7 80 3e
       -0.1426962 -0.20275946 -0.11121858 0.25127545
000210 dd 19 1f be 5d 94 bf bd a4 c5 a0 3d a1 99 42 be
       -0.1553721 -0.0935447 0.07850197 -0.19003917
000220 29 76 fc 3d 38 8e b5 3d 3c a9 8e 3e b1 68 00 be
       0.12327225 0.08865017 0.2786349 -0.12539937
000230 17 d7 55 be 2a bb 4e 3e c1 89 bd 3d 75 18 3d bd
       -0.20882832 0.20188585 0.0925479 -0.046165902
000240 be e1 46 3e 5b 53 31 bd 0c 87 62 3d 67 09 24 3e
       0.19422051 -0.043292385 0.055304572 0.16019212
000250 3b d9 12 3c 93 bd 2d be d0 8e 4e be 59 28 af bd
       0.008962925 -0.16966848 -0.20171666 -0.085526176
000260 f5 f9 e2 bd 23 b8 34 3b ae 87 48 bd 17 4d d2 3d
       -0.11082832 0.0027575574 -0.04895752 0.1026861
000270 17 33 31 be f5 2b 1b bc 8d df 32 3e 72 80 66 bc
       -0.17304645 -0.009470929 0.1746809 -0.01406871
000280 14 c8 fb bd fd 39 b0 3d cb c2 f3 3c e5 6d ba bd
       -0.12294021 0.086048104 0.02975597 -0.09102992
000290 4b 97 8a bc 60 c0 1b 3d 0e c0 36 bd 80 ea d5 3d
       -0.016917845 0.03802526 -0.04461675 0.10445118
0002a0 06 1c 17 be 19 93 a5 3d f0 49 a2 3d 64 ca b1 bd
       -0.14756784 0.08084697 0.07924259 -0.08681181
0002b0 00 9e 06 3e 8b 88 30 3d a5 45 b0 bc ee b5 a7 3d
       0.1314621 0.043098968 -0.021517584 0.08188997
0002c0 4b dd 8e bc f7 f3 b2 3c bb be 86 bd 92 b5 c6 3d
       -0.017439505 0.021844847 -0.06579348 0.097026005
0002d0 4d 27 09 3e bc 65 0c 3d 9a 95 eb bc 0d a6 94 3c
       0.13393898 0.03427671 -0.028757859 0.018145585
0002e0 70 e9 cb 3d f4 c6 69 3d 3b ba 02 be b4 35 ac bd
       0.09956634 0.057074502 -0.12766354 -0.084086806
0002f0 8b b5 e8 bb 61 db ad 3c 41 23 0f bd 84 4a 75 3d
       -0.0071017197 0.021222772 -0.03494573 0.059885517
000300 d0 d3 97 3c d8 29 8d bd 6b 31 01 bc 2d b0 8e 3d
       0.018533617 -0.06892747 -0.007885317 0.069671966
000310 ab ca 84 3e b8 bc 39 bd fe 5d 33 3e 80 53 06 be
       0.25935873 -0.04534599 0.17516324 -0.1311779
000320 a4 56 9a 3d 04 a5 90 3d e6 05 41 3d 2a 7f 56 be
       0.07536057 0.07062724 0.047124766 -0.20946947
000330 5d ee 51 3d 89 06 38 3d 67 75 16 bd e9 f8 a1 bd
       0.05125271 0.044928107 -0.036733057 -0.07908804
000340 1a a7 d2 3d 04 82 ac 3d 8d fa 9b bd 39 f6 85 3d
       0.10285778 0.08423236 -0.07616148 0.06541104
000350 68 cb 53 be e8 21 40 3e d3 ba e6 3d 3f db 9a 3d
       -0.20683062 0.18762934 0.11266103 0.07561349
000360 ea 45 76 bd c5 20 34 3d 32 5a 2a bd 92 6f 1a 3d
       -0.06012527 0.043976564 -0.041589923 0.037704058
000370 79 aa 08 3c 39 4b 12 3e 11 cf 0c be ba 01 7e 3d
       0.008341425 0.14286508 -0.13750865 0.062013365
000380 71 1f 26 3d 06 79 28 bc e4 fa 39 3d bd 8e 3d 3d
       0.04055733 -0.0102827605 0.045405284 0.046278704
000390 48 b7 b6 3d 57 80 0d 3e d6 57 ea ba a8 a1 4a 3e
       0.08921677 0.13818489 -0.001787896 0.1978823
0003a0 6b 03 d1 bd 5c 2f 7c 3e 66 a0 c4 3d 54 8d 2f be
       -0.1020573 0.24627441 0.09600906 -0.17143756
0003b0 ac fe 34 be 8c 82 29 bd 8b 7a c6 bc 82 4c f1 3b
       -0.17675275 -0.041384265 -0.024228355 0.007363857
0003c0 1a 5e c4 3b 62 10 4e 3b 40 0d 0e 3e 17 93 d5 3d
       0.005992663 0.003144287 0.13872242 0.10428446
0003d0 9d 98 5a 3d 9e 64 87 bc 22 c8 40 3d b2 91 5c be
       0.0533682 -0.01652747 0.04706586 -0.21539953
0003e0 35 84 0e be 95 00 2f bd 3f 8c a2 bc 10 6d 22 be
       -0.1391762 -0.042725164 -0.019842265 -0.15861917
0003f0 18 6f 0c 3c b6 bd 37 3d ed a8 89 3d 72 8d 3e be
       0.008571409 0.044858657 0.06721673 -0.18608645
