Assets/ResultWithBlinky/PacmanMlAgent-135211.onnx (onnx, 377078 bytes, 6 tensors)

action_model._discrete_distribution.branches.0.bias f4 [5]
00000000: 0af8 5b3c c1f5 21bc 67c9 ea3b 1089 3839
00000010: 1919 8bbc
0.013425836 -0.009885252 0.0071651223 0.00017598667 -0.016979741

action_model._discrete_distribution.branches.0.weight f4 [5, 128]
00000000: 0945 de3d 8f19 173b 45bf 37be 51de c2bb
00000010: a099 b63d 66b6 e6bc dd0e 27bb c672 9fbd
00000020: d499 9abd 50e7 413c 6c74 49bb 65f3 613b
00000030: 72cf 68be fd45 193c 0aa0 273c 8950 693a
00000040: 95e6 5d3e 0489 fe3d 8846 54bc 0694 fd3c
00000050: acf5 61be 682e b03b 082e bd3c c412 6eb9
00000060: 9fae 29be c22e ad3c c69d ffbb 67d4 a0bc
00000070: ce77 eab8 4026 d8ba c44c 3bbe 7c3e c03d
00000080: f8f1 f93b 63c8 d3bc 4c0c f23a 193a 80bd
00000090: 76f7 733b 6eb4 3c3c 14c6 1b3d 0ef6 b1bb
000000a0: bc45 22bc 994e 473d 807b 89bb 4da6 01bb
000000b0: dd54 13bc 56d5 753b d0c8 fcbd 134e 87bc
000000c0: 2ef9 f63b 0485 fdbb 6960 083e 2b59 56bc
000000d0: f640 593c bd3a 0a3c 959f a3ba a527 a139
000000e0: 5a5e ecbc e457 3b3b 07fc 433b b015 a13c
000000f0: 55e9 24bc dfb5 88ba d908 a53b f622 e83c
00000100: db1a 39bc 3d09 843c 19a6 a9bc 4eb8 2dbc
00000110: 8043 113e e56d f83d fcff 863d a673 69bb
00000120: 057d 493c 47dd 17bc 3139 97bb c37e 1ebc
00000130: b063 90bd 5c54 9abb 0469 88bc 1689 693c
00000140: cfff 933d 1f79 863d 8c03 023b 4b35 e6bb
00000150: aa8c c8bb a784 6abb 581a 723b 5a13 71bc
00000160: d284 903c 65b1 06bd fae3 0ebc 7c18 d9bd
00000170: a9d1 2cbc 61a6 c0bb c856 45bc 3fe9 713d
00000180: 8a62 823b 2b07 bf3d 7a84 30bc 4abe f83d
00000190: 7f1c 2b3c 82ad abbb 215f 393b 461e 483a
000001a0: 933d ee3b b185 5cbb a8c0 fb3d ae16 683c
000001b0: 0100 58bc a41d 92bb a9df 20be 8305 55bb
000001c0: 2db5 8d3c 91b4 7abd a700 38bc c3e8 1e3c
000001d0: 157e 9abd 0478 023e 334e b0ba 4afb 4cbc
000001e0: f073 c3bb 059f 79bc 5896 cdbc d643 ce3c
000001f0: 8365 b6bc 9260 abba 6765 a63a baf2 acbb
00000200: 2c7c efbd 4e28 8d3c 3972 383e 2639 d63b
00000210: 774f 0abe d634 523d dd4b 0fbc 3955 373d
00000220: ee68 133e 378b 7e3c f976 bf3c 6133 2dbc
00000230: 9d73 273e 6c4e 17bc b7ae 0abc 8f64 01bb
00000240: dc51 0dbe 8556 16be b4e9 1c3c e873 773a
00000250: e2ec 283e 6b3d c7ba a8e2 0c3c 9970 afbc
00000260: fae4 4a3e ab7c 223c eda8 193b 942e 1bbc
00000270: c966 a83b ecd7 bf3c f199 513e 6f85 9cbc
00000280: 223f da3b 45df b4bb 480f fc3b 4a0f eabb
00000290: eca9 013c cd1e 16bb 5490 99bd 9df9 9e3d
000002a0: d074 393c 7607 d1bd 2508 d6bc afcb ccba
000002b0: e83c a1bb d5c3 5b3b 13e8 a23d b159 d73b
000002c0: 8ec6 a73c 83ac 76bc 564d 09be fdac 813b
000002d0: 4de3 a33b 7b8d 123c f741 51bc 8db4 f23b
000002e0: eaca b23c 67fe d1bb e2ac 2c3c c922 a5bc
000002f0: be4d f0bb 6bdd 4dbb 4ac9 113c 9b12 9dbd
00000300: 85ad 303b 7a10 dd3c 0211 7a3c 5709 5cbc
00000310: 9495 84bd c44f 6dbd 4d1e b2bd 9962 9c3c
00000320: 9b8c c83b 9e63 e13b f5a3 d1bb 0633 28bb
00000330: cde3 943d 2e9c 323b f6ed cd3c f910 66ba
00000340: 4321 48bd 1c67 30bd 633d 0dbb 59da 07bc
00000350: 1aec f33b 3498 ceba 6ab3 0fbb 8062 35bc
00000360: 5a35 dbbc eb39 073d 2fef 37bc 0621 143e
00000370: 63b4 f2bb 1d45 abbc 7106 04ba d213 a7bd
00000380: 3496 44ba b0d9 cbbd 086b 8d3a 1bef 0bbe
00000390: 2e9f d7bb 7cab ea3b 41de 903a 4601 92bb
000003a0: e340 a93c fd28 61b9 6e8f edbd 0174 21bb
000003b0: 8409 1a3c dbe0 32bb 0a3f 4a3e e161 0dbc
000003c0: 9e35 4bbd 3ad8 9f3b 850a 9a3b 3424 40bb
000003d0: dea3 163e 89f2 07be fdab 4b3a 72c8 183d
000003e0: c1ed 10bc e42d 0f3c 18f8 393c 0160 593c
000003f0: 1295 84ba 3c99 65bb cff0 dfbb f587 313b
0.10853011 0.0023056006 -0.17944057 -0.0059469123 0.089160204 -0.028163146 -0.0025491037 -0.07785563
-0.07548872 0.011834934 -0.003073956 0.003447735 -0.22735384 0.009355065 0.010231027 0.00089002453
0.21669991 0.124284774 -0.012956269 0.030954372 -0.22066373 0.005376626 0.023093238 -0.0002270444
-0.16570519 0.02114046 -0.0078007905 -0.019632531 -0.00011180305 -0.0016490892 -0.18291003 0.09386918
0.007627722 -0.025852388 0.00184668 -0.06261081 0.0037226356 0.011517627 0.0380307 -0.0054309433
-0.009904321 0.04865894 -0.0041956306 -0.001978296 -0.008992401 0.0037511191 -0.123429894 -0.01651672
0.0075370288 -0.007736804 0.13318028 -0.013082783 0.013260117 0.008436856 -0.0012483472 0.0003073785
-0.028853584 0.0028586322 0.0029904859 0.019663662 -0.010065396 -0.0010430178 0.005036455 0.028336983
-0.011297907 0.016117686 -0.020709084 -0.010603024 0.14185905 0.12130336 0.06591794 -0.003562191
0.012297873 -0.009269065 -0.004614972 -0.009673777 -0.07050264 -0.0047097635 -0.016651638 0.014253875
0.07226526 0.06566071 0.001983854 -0.007025396 -0.006120284 -0.0035784633 0.0036941972 -0.014714086
0.017641459 -0.03288402 -0.008721346 -0.10600373 -0.010548034 -0.005879209 -0.012044616 0.05906033
0.003979032 0.09327539 -0.010773772 0.1214567 0.010443806 -0.0052391896 0.002828546 0.00076339056
0.007270524 -0.0033649022 0.12292606 0.0141655635 -0.013183595 -0.0044591 -0.1571032 -0.0032504506
0.017298305 -0.061207358 -0.011230624 0.009699049 -0.075435795 0.12741095 -0.001345104 -0.012511084
-0.0059647486 -0.015235667 -0.025096104 0.025178831 -0.022265201 -0.0013075045 0.0012695015 -0.0052779587
-0.11693606 0.017231133 0.18012322 0.0065375743 -0.13506876 0.05131992 -0.008746115 0.04475901
0.14395496 0.015536121 0.02337216 -0.010571332 0.16352697 -0.009235006 -0.008464507 -0.0019743775
-0.13800758 -0.14681442 0.009577204 0.00094395736 0.16496614 -0.0015200799 0.008598961 -0.021415995
0.1981391 0.0099174185 0.0023446635 -0.009471554 0.005139206 0.02341839 0.2046888 -0.019106595
0.006660358 -0.00551978 0.0076922514 -0.007142936 0.007914048 -0.0022906542 -0.074982315 0.07762454
0.011319354 -0.10206501 -0.02612693 -0.0015624667 -0.0049205907 0.0033533473 0.07954421 0.0065719713
0.02048042 -0.015055778 -0.13408408 0.0039573894 0.0050014616 0.008944864 -0.012772075 0.0074067772
0.021825273 -0.006408501 0.010539265 -0.020158188 -0.0073334863 -0.0031412493 0.008898089 -0.07669564
0.0026958894 0.026985396 0.015262844 -0.013429961 -0.06473842 -0.0579374 -0.08697186 0.019089984
0.006120277 0.0068783304 -0.006397719 -0.0025665178 0.07270012 0.0027253735 0.025137883 -0.0008776333
-0.048859846 -0.043067083 -0.0021551482 -0.008291804 0.007443917 -0.0015761913 -0.0021927007 -0.0110708475
-0.026758838 0.03301422 -0.011226459 0.14465722 -0.0074067577 -0.02090698 -0.000503636 -0.08158077
-0.00074991887 -0.0995363 0.0010789344 -0.1366543 -0.006580255 0.007161556 0.0011052565 -0.004455718
0.020660823 -0.00021472941 -0.11599623 -0.0024635794 0.009401683 -0.0027294669 0.1975061 -0.008629293
-0.04961168 0.004878071 0.004700961 -0.0029318454 0.14710948 -0.13276114 0.00077694637 0.037300535
-0.008845747 0.0087389685 0.011350654 0.013267518 -0.0010115227 -0.0035033962 -0.0068341265 0.0027089093

network_body.linear_encoder.seq_layers.0.bias f4 [128]
00000000: ef89 c4bc ac44 93bc 971d 62bb 1f7e 1fbe
00000010: 5258 c7bd ec8e 3a3e 5a05 2d3e 12c9 313e
00000020: da82 2cbe d94c 20be d620 2d3e 0f18 a4bb
00000030: 6ad7 823b 32a3 323e e382 29be 2860 cfbb
00000040: f21b 90bc 267e 2c3e 97cc 2b3e d2d5 323e
00000050: a596 2e3e a497 2d3e 8600 373e f1b5 5ebc
00000060: 6b28 23be a778 2d3e 976c 0ebd 1034 9fbb
00000070: 43f0 8ebc 275f 3fbc 5e7c 2f3e fc6f 2cbe
00000080: 8e3e 1ebd 9a65 ffbb c73d 59bc 9aee cb3a
00000090: ba3e 23be ba58 1dbe ed4c 30be ee3d 1bbc
000000a0: 0b5c 78bd fb09 eabb 71a3 52bd f943 ccbd
000000b0: cf0c 15bc 3d89 31be fcb4 09bd 5eba d2bd
000000c0: 7622 23be b580 02bc b8d9 333e b5a2 27be
000000d0: e014 23be eb46 283e ead5 31be aeb2 2d3e
000000e0: 6fbd a9bc f068 09bd 778c 333a b7c5 24be
000000f0: 5503 333e 3e52 03bd abe5 243e 7df9 2f3e
00000100: 71a9 8ebb 43f4 2cbe 7b7f 2c3e fc47 82bc
00000110: b5c5 303e 7969 cfbb f7d3 2d3e 9682 313e
00000120: fe4c 373e 9757 273e c332 67bb 364d 2d3e
00000130: 19f5 2cbe 2dc2 2c3e a75c 9cbc a7c9 2e3e
00000140: 5a4b 11be bca6 e1bb fba4 353e bdc1 073b
00000150: 1510 54ba 94eb 353e dc05 b8bc 8d46 21be
00000160: 9432 bd3b fe35 2c3e 3abc e8ba f8e6 2a3a
00000170: 1a8d 29be ee65 23be 76a8 313e 4b61 263e
00000180: 479f 22be b7fd 0fbd 5306 2bbe d956 1b3e
00000190: 3e78 21be ff67 263e 742a 39bc c55c 15bc
000001a0: 3375 62bc 89b2 7fbd a675 26be 2b98 36be
000001b0: fd47 323e fdf4 24be 72ce 2ebe 7e95 363e
000001c0: 538b 56bd 91dc 2abe 4fd5 2c3e 410f 363e
000001d0: 6be1 25be 2b10 33be 4fc5 b03b 3f33 27be
000001e0: 5c28 2abe 9627 363e 7bb5 2f3e ed54 313e
000001f0: 5bd6 d73a 7be4 26be 66f0 253e e149 2d3e
-0.023991553 -0.017977081 -0.00345025 -0.15575455 -0.09733643 0.18218583 0.16896573 0.17361858
-0.16846791 -0.15654315 0.16907057 -0.005007751 0.0039929645 0.17445067 -0.16553836 -0.0063286014
-0.01759145 0.16844997 0.16777264 0.17464378 0.17049654 0.16952378 0.17871293 -0.013593183
-0.15933387 0.16940556 -0.034771528 -0.0048585013 -0.01744855 -0.011680401 0.17137286 -0.16839594
-0.038633876 -0.0077940943 -0.013259358 0.001555878 -0.15941897 -0.15365878 -0.17216845 -0.009475214
-0.060634654 -0.007142303 -0.0514254 -0.09973902 -0.009097292 -0.17337508 -0.033619866 -0.10289453
-0.15931115 -0.007965256 0.17563522 -0.16370662 -0.15925932 0.16433303 -0.17366758 0.16962692
-0.020720212 -0.03354734 0.0006849239 -0.16091047 0.1748174 -0.032060854 0.16103236 0.17185016
-0.004353695 -0.16890053 0.16845505 -0.015903465 0.17262919 -0.006329712 0.1697539 0.17334971
0.17900464 0.16342007 -0.003527806 0.16923985 -0.16890372 0.16870947 -0.019087149 0.17069112
-0.141889 -0.0068863314 0.17738716 0.0020714842 -0.00080895546 0.17765647 -0.022463731 -0.15749569
0.0057738516 0.16817471 -0.0017756291 0.00065194024 -0.16557732 -0.15956852 0.17349419 0.16248052
-0.15881072 -0.03515407 -0.16701631 0.15169849 -0.15768525 0.16250609 -0.0113016255 -0.009116356
-0.013821888 -0.062426124 -0.16255817 -0.17831485 0.17410274 -0.1610908 -0.1707094 0.17830464
-0.052378964 -0.16685702 0.16878246 0.17779256 -0.16199271 -0.17486636 0.005394615 -0.16328143
-0.16616958 0.17788538 0.17159073 0.17317553 0.0016467081 -0.16298096 0.16204986 0.16922714

network_body.linear_encoder.seq_layers.0.weight f4 [128, 597]
00000000: f538 813c c5f8 89bc 7df6 a63c 2da6 78bd
00000010: 1f6e 493d dfbb 67bd 010a af3b 6a50 a53c
00000020: f2ae c93d 4d14 9fbd 8661 73bd f7e2 5f3c
00000030: b012 853d ac01 92bb ae12 0cbd a9f3 323d
00000040: 5417 203d 3b48 bcbb ad4e 2e3d ad97 933c
00000050: e7ad 36bd 9890 a4bc 4491 a0bd 2c35 e6bc
00000060: a90d 9abd 4a7a 64bd 7186 53bd 0865 bb3c
00000070: 35a3 aabb 10a3 c33c bb69 283d 5ed6 d5bc
00000080: 9770 fd3c 4eb3 d93c 30bf 00bd 3856 963d
00000090: f674 963d 8174 623a d8de bebc e158 44bc
000000a0: 8b25 4c3b 17e9 323c b254 7bbd 3451 aabb
000000b0: abde 1bba e426 303d d866 eb3d 5a18 b4ba
000000c0: 9d42 d63b 22e0 b2bc ed5e 30bb 80c1 e93c
000000d0: 9d90 eebc 3109 29bc 174f 703d c651 ef3c
000000e0: 31a6 263d 168c b43c 731d 313d 6f0d eabc
000000f0: 74b6 41bc ed95 2e3c 53b3 92bc 831b 2ebd
00000100: a943 0a3d f22f b5bd f654 893d 4841 a33b
00000110: ac5d 09bd 5a27 673d bfd8 9dbc b563 cfbc
00000120: 3d87 34bd c9a0 99bc f72b 4fbd 2172 d53c
00000130: 7be3 b33c 0284 51bd 0dd9 933c 4e5c c0bd
00000140: 0b89 ba3c b3ff abbc 7045 51bc 74ec 6bbc
00000150: 6ade 243d 5ef4 cd3d 3e6d 1c3d 5223 bfbd
00000160: 128b deb8 4090 40bd 91c4 923d bd2c 6e3d
00000170: 949c b83c 4722 13bc a8a9 afbc 3d8c 113d
00000180: 862b f2bb 5e0a 4ebd dee3 52bb 1283 3abd
00000190: 3da8 0fbd 931a 133d 5cba 05bc baef 853d
000001a0: 3378 283c 7a09 4dbd f514 28bd 0eec 9e3b
000001b0: 937b 2d3d 856b 09bc 7608 923c 0597 1dbd
000001c0: e0e5 4fbc 09a7 973c 0730 ad3b 66e1 4f3c
000001d0: 69b2 3b3c 4d86 25bc b671 e83c 1020 7ebd
000001e0: 2344 7d3a d9f3 243d 0af7 cfbc f692 babd
000001f0: 89e0 813d 72cb 11bd 68b5 07bd fef2 71bd
00000200: 468e b43c 477e 89bc d5fe f43b 375d 943d
00000210: 23d8 c13c 2ba4 46bb 7358 16bd 6e29 ac3c
00000220: 80f1 253d 1654 b0bc 8b7a 01bd 908a 87bd
00000230: 00cc dbbc 5271 b83b 9fb2 853d 74d6 153c
00000240: ea07 b33d 8221 bf3c 4eca 67bc 63bd e53c
00000250: 6695 9f3c 4443 513d c694 273a 7411 83bc
00000260: e260 8ebc a8b7 7ebd e51e c2bc fa81 9abd
00000270: 6735 f93c b076 30bc 3ddb b3ba f10d 1dbb
00000280: 495f 2f3d 42ab fd3b 1152 23bd 4909 333b
00000290: b3e9 f6bb 1875 7e3c 9b16 9e3c 6d91 a5bb
000002a0: 47eb 133d 968e 953c fc35 74bc 1429 4f3d
000002b0: a3c1 d0bb b180 783d bffc f1bc d42d cf3c
000002c0: 25d7 babb 06ae 4f3d 57bd 583a 2d04 8bbc
000002d0: 2cf8 cc3c 9a91 98bc 8c0d 9f3b cdf4 9b3d
000002e0: f9ae 993d 878e 58bc 0aed 013d 642a 313d
000002f0: ccea f7bb 0cba e1bc 0135 6fbd e13e 1abd
00000300: d56a 743d 516f 3cbd 3ccc 983c 2ca6 a73a
00000310: 0cb0 283c 46de e33c 61a0 94bd fb6e 8e3d
00000320: d083 533c 2393 14bd 5caa d13c 19ab 443d
00000330: adc3 3e3c 1af6 23bd f8b2 80bc 2e45 e33c
00000340: d0c9 523d 2899 47bc 9504 b33c e5b3 b6bc
00000350: 9cc1 513d e798 12bc d468 5cbb 1259 a13c
00000360: 97aa 423d 51f3 c7bd fce7 a5b9 7c0e 8dba
00000370: 8294 0fbd 4182 233d 87af 11bb 7135 13bd
00000380: c1c7 9d3b a0c0 f2bc 59e1 d2bc b025 e73a
00000390: 32e2 a23c 4c50 81ba 1fb3 c03c ab99 84bb
000003a0: 9b58 433c 2ae8 8fbd 7cef 8b3d 7d7b c53a
000003b0: 5bba 913c 98e5 6b3d c726 143d 0ca5 cabd
000003c0: 82f4 a7bc 9e7e 673b 26f5 123d ad57 1d3d
000003d0: 9066 e13c 59b5 36b8 36db 1c3d 15e5 773d
000003e0: 5c5a 723d 02b5 3fbd 432d 963d 2305 9a3b
000003f0: 2110 d33c 13ba 38bc bbb6 a53b 37d4 46bd
0.01577423 -0.016842255 0.020381207 -0.060705353 0.049177285 -0.056575652 0.0053417687 0.020179946
0.09847821 -0.07767544 -0.059419177 0.0136649525 0.06497705 -0.0044557657 -0.0341975 0.043689404
0.039084747 -0.005745915 0.0425555 0.01801666 -0.04459944 -0.020088479 -0.07840207 -0.028101526
-0.07522137 -0.055780686 -0.051641885 0.022875324 -0.005207444 0.023881465 0.041116457 -0.026103195
0.030937476 0.026574757 -0.03143233 0.07340664 0.07346527 0.0008638576 -0.02329962 -0.011984081
0.0031150307 0.010919831 -0.06136007 -0.0051976684 -0.0005945961 0.04300584 0.11494225 -0.0013740167
0.0065387026 -0.02183539 -0.002691205 0.02853465 -0.029121691 -0.010317133 0.058669176 0.029213797
0.040685836 0.022039454 0.043240976 -0.028570859 -0.011823285 0.010655862 -0.017907774 -0.042506706
0.033755932 -0.088470355 0.06705658 0.0049821474 -0.033536598 0.056434013 -0.019268392 -0.025316099
-0.044074286 -0.018753426 -0.050579038 0.026055397 0.021959057 -0.051151283 0.018047834 -0.09392606
0.022770425 -0.02099595 -0.012772903 -0.014399637 0.040251173 0.10056375 0.03819012 -0.09332909
-0.00010611689 -0.047012568 0.07166398 0.058148134 0.0225356 -0.00898034 -0.021443203 0.035534132
-0.0073904423 -0.050302856 -0.0032179276 -0.045535155 -0.035072554 0.035914015 -0.008162107 0.06539865
0.010282564 -0.050057866 -0.04103561 0.0048499173 0.042354178 -0.008387451 0.0178263 -0.0384741
-0.012689084 0.018512266 0.0052852663 0.0126880165 0.0114561105 -0.010102821 0.028374534 -0.062042296
0.0009661337 0.040271614 -0.025386352 -0.09110062 0.06341655 -0.03559441 -0.033131987 -0.059069626
0.022040498 -0.016783847 0.0074766674 0.07244342 0.023662632 -0.0030310254 -0.036705445 0.021015849
0.040513515 -0.02152447 -0.031611007 -0.066182256 -0.026830673 0.005628743 0.0652821 0.009145368
0.08741744 0.023331407 -0.014147354 0.028044408 0.019480418 0.05108954 0.00063927134 -0.015999533
-0.017380182 -0.062186867 -0.023696372 -0.07544322 0.030420972 -0.010770485 -0.0013721954 -0.0023964609
0.04281548 0.007741363 -0.039873186 0.0027318767 -0.0075351833 0.015530847 0.019297889 -0.0050527365
0.03611305 0.018256467 -0.014905449 0.050576285 -0.0063707395 0.060669605 -0.029539464 0.025290407
-0.0057019168 0.05070307 0.000826796 -0.016969765 0.025020681 -0.018624116 0.00485391 0.076150514
0.075040765 -0.013217575 0.0317202 0.043253317 -0.0075658318 -0.027554534 -0.058400158 -0.037657622
0.059672195 -0.046004597 0.018652074 0.0012790612 0.010295879 0.02781595 -0.07257152 0.069547616
0.0129098445 -0.036273133 0.025593929 0.048014734 0.011643332 -0.040029623 -0.015710339 0.027742948
0.051461995 -0.012182511 0.02185277 -0.022302577 0.05121003 -0.008947588 -0.0033631818 0.019695792
0.04752597 -0.09763206 -0.00031644094 -0.0010761763 -0.035053737 0.03991914 -0.0022229867 -0.035939638
0.0048150723 -0.029632866 -0.02574222 0.0017635133 0.019883249 -0.0009865849 0.023522912 -0.004046639
0.011922981 -0.07026704 0.068327874 0.001506671 0.017789057 0.057592005 0.036169793 -0.098947614
-0.020502333 0.0035323272 0.035878323 0.038413692 0.027514726 -4.3561075e-05 0.038294993 0.060521204
0.059168205 -0.046803482 0.07332852 0.0047003194 0.025764527 -0.011274832 0.0050571836 -0.048542228

network_body.linear_encoder.seq_layers.2.bias f4 [128]
00000000: bc1f 0bbe f560 96bc 4332 0d3e 0800 16bd
00000010: f88e e3bd b571 8b3c 5127 07bc 47b6 5b3c
00000020: 6811 053e 7544 30bd 4fc3 483c 1b01 27bc
00000030: 48b8 1c3e 0d9b aa3a da78 82b9 0f8b e3bb
00000040: 4a1e 1ebe 6d60 f7bd d3de 9dbc 6f9c 9bbb
00000050: 33d1 093e 1186 d5bb 40db 293c 2d6a ebbc
00000060: 32e4 223e 5d2d 0a3c c618 d2ba 9832 26bd
00000070: b61e f1bc e80c d1bb e04e 263e ebf5 ffbd
00000080: a8db 77ba 638d 3d3c db08 4dbc 4cd4 3e3d
00000090: 25b8 ddbb 585d 76bb 766f 9bbd c0a7 2c3d
000000a0: 193c 23bc 1ed3 08be 36a0 d7bc 7695 0ebc
000000b0: 4387 1bbc 752f 64bb 46fa c83d 944b 58bb
000000c0: 1327 28bc 07ef 5cbc 2aca 07be 4963 83bc
000000d0: d423 b13b 61ef c6bb efb9 a6ba 6219 8abc
000000e0: 60a6 a83c 55ef 57bc 27ce 73bc 44d2 26bd
000000f0: aab0 65bd aa18 4bbc 0760 2bbc feec acbd
00000100: 181d ecbb 7585 b2bc 38ef bfbc a76a e9bb
00000110: b04a 8fbd edd2 23be a31c 22be 3c9a 3fbc
00000120: 7214 fe3b c0a0 67bc 54cc 9fbc 5ed8 d9bc
00000130: ab9c 863d a1f0 a1ba f3bd 883d 4b4b 2d3c
00000140: 1577 f8bd e6f0 07be f6f0 0abd bef1 0bbd
00000150: 6012 9838 1e2b 36bc 7423 93bc aebf 99bb
00000160: 90c0 abbd e036 3d3d 3662 45bc 9fca 9e3d
00000170: f923 f9bb 9773 bfbd bfa0 94bc caaa 01be
00000180: 03e0 89bc 9ce1 18be a08b 97bb 435b f0bd
00000190: bdf4 ee3a 5e3e 27bc 3f3c a9bb e6a5 743c
000001a0: 1add 33bd eeea 61bc 6c6a 07be bad0 2ebb
000001b0: 058c 88bb 0cba 96bc caa5 183e cbab 7ebc
000001c0: 8b9b 92bd d370 72bc ba6f 303c 05fb b93b
000001d0: 7a6b 203e 87d5 f7bd 5226 aa3b 8be8 293d
000001e0: a909 a03a 2ef9 7639 2c2a 94bc 7dfa a93b
000001f0: fca1 7439 9349 0e3d ae21 f4bb ac4a e2bb
-0.13586324 -0.01835678 0.13788705 -0.036621124 -0.111112535 0.017021993 -0.00824912 0.0134101575
0.12994921 -0.043034036 0.012253596 -0.010193135 0.15304673 0.001301618 -0.00024885574 -0.0069440673
-0.15441242 -0.12078939 -0.01927129 -0.004748873 0.1345871 -0.006516226 0.010367215 -0.028737152
0.15907362 0.008433667 -0.0016029112 -0.040575594 -0.02943359 -0.0063797124 0.16241026 -0.12498077
-0.00094550336 0.011569354 -0.012514318 0.04658918 -0.0067663365 -0.0037592258 -0.07589619 0.042152166
-0.009963059 -0.13361785 -0.026321512 -0.008702626 -0.009492698 -0.0034818326 0.09813361 -0.0033004032
-0.010263222 -0.013484723 -0.13260713 -0.016038554 0.0054058824 -0.0060710167 -0.0012720207 -0.016857807
0.020587146 -0.01317962 -0.0148806935 -0.04072787 -0.056076683 -0.012396017 -0.010459906 -0.0844364
-0.0072056167 -0.021792153 -0.023429498 -0.0071233097 -0.069966674 -0.1599843 -0.15831237 -0.011694487
0.007753902 -0.014137447 -0.01950661 -0.02659243 0.06572851 -0.0012355038 0.06676855 0.010577033
-0.12132088 -0.13275489 -0.033921205 -0.03416609 7.2513474e-05 -0.011118678 -0.017961241 -0.0046920395
-0.08386338 0.04619491 -0.012047341 0.07753491 -0.007603165 -0.09348219 -0.018143056 -0.12662807
-0.01683045 -0.14929813 -0.004624799 -0.11736157 0.0018230897 -0.010207741 -0.0051646526 0.014932131
-0.04391203 -0.013788922 -0.1322419 -0.0026674704 -0.0041670823 -0.018399261 0.14906994 -0.015543888
-0.07158574 -0.014797407 0.010768825 0.005675676 0.15665999 -0.12101274 0.0051925564 0.041481536
0.001220991 0.00023553215 -0.018086515 0.0051873312 0.00023329997 0.034738135 -0.007450304 -0.0069058742

network_body.linear_encoder.seq_layers.2.weight f4 [128, 128]
00000000: 08e4 ed3d 64ca 9d3d 81e7 95bd 4477 873e
00000010: f7ae 143e 5403 3ebe a160 bdbd 1448 84bd
00000020: b51e f73d 395b a83e 642d 8abc eeb2 c8bd
00000030: 3c3d 47be c478 3ebe 5868 223d f9b0 51bd
00000040: 3b22 e83d 9eb6 d4bd 284a 22be 89e0 37be
00000050: b137 933c 025a 97bd 01f0 913d 3d98 893d
00000060: 5895 343e 0fee 383c 9fd9 393d e863 bb3d
00000070: 7e77 633c 79db 54bd 5d1e 3b3d 43bb af3c
00000080: d45d 083e c564 fd3d 71ab 52bd bff2 f73c
00000090: 810d 823e 8a86 6e3e 7651 443e 1188 953c
000000a0: 19a7 0a3e d91e 993d cd52 813e 9300 d23d
000000b0: 7125 1bbe e248 0c3e 7963 d43d 0159 503e
000000c0: 4e9c 0e3e 14e0 25bd e82f 51be 83eb 1a3e
000000d0: 02ab a33d 0e30 20be 2494 9a3c 95df 11be
000000e0: 3909 9dbc e821 2b3e 7dfc 57bc b093 c93e
000000f0: c6a5 41be 958e 153e 7c7e 67be 008e 91bd
00000100: a982 363e 45a3 653d cdb6 05be 570a 063e
00000110: 8c2b 01be db93 67be 9f98 fc3b 4588 53be
00000120: cec1 41be 29fd fbbd fe26 c43b d408 01be
00000130: ab90 443e 2ad9 2bbe d1da a0bd c526 10be
00000140: 69f5 c43b 6e10 93bc b1ed 3fbe f225 063d
00000150: 17cb 6f3e 32a1 75bd a3ea d8bb bcba 233e
00000160: 96a3 f6bd 87d4 3fbe e433 68bd 0c5b 31be
00000170: e040 123e f25f 233e 8d14 1dbe b9d2 40be
00000180: e252 b23e 3ec3 1d3e 032b 25be b202 1dbe
00000190: e42a c13d c957 5c3d 42b5 eaba 65de c43d
000001a0: 918f 573d 3949 173e 46b3 053e 8dd8 3dbb
000001b0: 42e4 68be 8aa7 483e a212 403e 6739 c9bd
000001c0: 9b8c 273c 8b64 7d3e 513c 3dbe d137 f5bd
000001d0: f27d a93d 608e 6b3e e9f0 17be ca5a df3d
000001e0: d0c7 293e 2cda 043a 24e6 42be 45fc fbbd
000001f0: d109 9a3c c8da 5a3d 1f23 99bb 1299 41be
00000200: 084a 9d3d 250e fb3c c882 d4bc 6548 3cbe
00000210: a4c3 cc3d 20cc 893e 41e6 723d 4dd6 4e3e
00000220: 1376 a6bc 8bd4 07be f945 913d 0a2c a13d
00000230: d729 883d 855e a53d deec d4bd 08ee 19bd
00000240: b3a0 f03d b1ac 383d a01e c2bc c850 bd3d
00000250: cddb a73e 9902 6c3e aa43 fa3d c387 0bbd
00000260: 58ee 84be 3684 463e 963e 7f3c 80de b63d
00000270: 9249 c3bc 2970 31bc 182c 003d 8763 92be
00000280: b3d0 ae3d 93c0 d13d 4c3a 9b3d ab09 acbc
00000290: b12e a7be 4add a73d 088a 67be e281 21bd
000002a0: ab7d 99bd d504 88bd eda4 f63c 5fe6 32bc
000002b0: dd6e 89bc 073b 10be 851e 293e d4b1 353d
000002c0: f9e5 34be 2100 313b 76b2 543d f876 ccbd
000002d0: 7678 3fbe 99cc 4e3e 2791 90be 7fcf ad3d
000002e0: 3f6f 81bd f7cd f03d 9aba bf3c 3a15 2ebe
000002f0: 9122 6a3e a427 c63d a164 823d dc0b 083e
00000300: 62c3 edbc f2d1 19be 3b0c 9a3e 5a2e e63d
00000310: ced9 a23c 019d 963d 2db2 453e d43f 963c
00000320: 104b 863e ffb0 a93d 71b5 c4bc aa21 3c3e
00000330: 4ba3 2ebe 08d5 d43d 473e b2bd 244a df3d
00000340: 4c28 c6bd 6e30 a33d 178e 3c3e f7e6 353e
00000350: 9df9 163d 1d8a 293e c705 443b ed60 50be
00000360: 447b 793c 1b66 923e 7495 20bd 28bf 2abe
00000370: f9af 71be 5547 1dbe 45d3 883c 05c9 813d
00000380: 3309 cdbd 7793 e8bc 78b1 13be 7a1e 283e
00000390: 7315 41be 40b1 053e 54a1 5cbd 10a9 fbbc
000003a0: 3b9d 74bd e696 28be 8f30 13be f549 7fbe
000003b0: 7d72 283e 3854 aebd fb95 b9bd c700 b43d
000003c0: b3b6 a63d 3c62 ccbd c464 a03e 251a 063e
000003d0: c137 81be b9bd 71be fc55 1c3e 1e30 4cbe
000003e0: 51ac 33be 2113 6d3e ca80 d33d 299f 393e
000003f0: c55f 9cbd 1580 50bd 2c09 dd3c a2a2 8a3e
0.11615759 0.077046186 -0.073195465 0.2645818 0.14519869 -0.18555957 -0.09246946 -0.0645906
0.12066404 0.32882097 -0.016867347 -0.09799753 -0.19456953 -0.18600756 0.03965029 -0.051194165
0.11334654 -0.10386394 -0.15848601 -0.17956747 0.017970892 -0.073902145 0.07125855 0.0671849
0.17635095 0.011287226 0.045373555 0.09149915 0.01388347 -0.051967118 0.045683254 0.021451598
0.13317043 0.12372736 -0.05143303 0.030267118 0.25400928 0.2329351 0.191717 0.018253358
0.13540305 0.07476587 0.25258484 0.10254016 -0.15151002 0.13699678 0.103705354 0.20346452
0.13926813 -0.0404969 -0.20428431 0.15128903 0.079916015 -0.15643331 0.018869467 -0.14245446
-0.019169437 0.16712153 -0.0131827565 0.3937049 -0.18910894 0.14605172 -0.22606844 -0.071071625
0.1782328 0.05606391 -0.13058014 0.13089882 -0.12614268 -0.22614996 0.0077086235 -0.20657451
-0.18921587 -0.12304146 0.0059860935 -0.12601024 0.19195811 -0.1678206 -0.07854236 -0.1407729
0.0060107005 -0.01795217 -0.18743016 0.03275103 0.23417316 -0.05996818 -0.0066197678 0.15989202
-0.1204292 -0.18733416 -0.05669011 -0.17319888 0.1428256 0.15954569 -0.15339871 -0.18830384
0.3482886 0.1540651 -0.16129689 -0.1533306 0.09432009 0.053794656 -0.0017906802 0.09612731
0.05262715 0.14774026 0.13056669 -0.0028968186 -0.22743323 0.19595161 0.18757108 -0.09825402
0.010226394 0.24745385 -0.1848004 -0.11973537 0.08275975 0.2300353 -0.14837994 0.109059885
0.16580129 0.00050679105 -0.19033104 -0.12303976 0.018803509 0.053431302 -0.004673376 -0.18906048
0.07680136 0.030646393 -0.025941268 -0.18386991 0.09998253 0.26913548 0.05930162 0.20198937
-0.020319974 -0.13264672 0.07093424 0.07869728 0.06648605 0.08074669 -0.10396741 -0.03758052
0.11749401 0.045086566 -0.023696244 0.092439234 0.32784882 0.23047866 0.12219937 -0.03406502
-0.25963092 0.19386372 0.0155788865 0.08929157 -0.023838792 -0.010829964 0.03129205 -0.28591558
0.085359 0.10241809 0.075794786 -0.021000704 -0.3265281 0.081965044 -0.22611248 -0.039430507
-0.074946724 -0.06641547 0.03010794 -0.010919183 -0.016776497 -0.14085017 0.16515549 0.044359043
-0.17665853 0.0027008133 0.051928006 -0.09983629 -0.18698296 0.20195235 -0.28235742 0.08486842
-0.06320047 0.11758035 0.023404408 -0.17000285 0.22864749 0.096755296 0.0636685 0.13285774
-0.02902383 -0.15021494 0.30087456 0.112393096 0.019879248 0.07354165 0.1930625 0.018340982
0.26229143 0.082857125 -0.0240123 0.18372217 -0.17054479 0.10392195 -0.08703285 0.10902813
-0.09675655 0.079682216 0.18413578 0.17763887 0.036859144 0.16556592 0.002991067 -0.20349474
0.015227143 0.28593525 -0.03920503 -0.16674483 -0.23602284 -0.15359242 0.016702304 0.063371696
-0.1001152 -0.02839063 -0.14423168 0.16417876 -0.18855838 0.13055897 -0.053864792 -0.030720264
-0.05972026 -0.16463813 -0.14373992 -0.24930556 0.16449924 -0.08512157 -0.0906181 0.08789211
0.08140316 -0.09979674 0.31326878 0.13095911 -0.2523785 -0.2360753 0.15267175 -0.1994023
-0.17546202 0.23151828 0.10327299 0.18127121 -0.07635454 -0.0509034 0.026981913 0.27077204
